checkpoint_actor_128_256.pth (torch_old, 150427 bytes, 10 tensors)

fc1.weight f4 [128, 24]
00000000: 5c92 ad3d 573e e4bd d6fe 203d b8a1 6abc
00000010: fde7 603d 7350 3abc 78ad 41bd c1a8 833d
00000020: e161 a8bc e2a0 9bbd 5ae2 8b3d 44c4 82bd
00000030: f209 80bd 6817 0e3d d787 73bd 230f 32bd
00000040: 3c26 e93c e740 78bd c026 ab3c 5f27 3e3b
00000050: 2865 f6bc a277 413d ba77 02bd 4109 2bbb
00000060: 4924 ffbc 744a d33d 0310 c4bc b242 86bd
00000070: 1244 50bb 7c23 d8bc abc4 8f3a 2795 76bc
00000080: 0dc1 7cba 418b 623d f2fc 8a3c aaf8 23bd
00000090: 132d 8b3c 86ea 27bc 6cad 18bd 30b5 643c
000000a0: c2e3 bd3d a2a0 453e dc3c ccba ac78 9ebb
000000b0: 6734 90bd ca58 a5bd 4cf8 b83c 4861 65bb
000000c0: 8110 8fbc 9bf9 823d f11a bcbc 1ede c13d
000000d0: c706 c4bd eaf7 023d b3df 7b3c b7d7 ebbc
000000e0: 7291 45bc e453 fe3d bea5 62bd e97a 3dbd
000000f0: 4c29 343d 3460 e6bd fa67 5f3d 4870 173d
00000100: 41eb 5dbc 2ddb 233d c6aa 3cbb 6562 633c
00000110: 1838 333d a84c aabd 69d7 58ba 4c12 66bd
00000120: f48b e5bd 2b48 d13c b7ab 8d3c d576 d0bd
00000130: 0568 f03c 8083 723d 9219 8abc 6b8f d1bd
00000140: f042 2f3d 27e0 063d ed77 e73c 122e fbbd
00000150: e862 6a3c ae63 833d c11c e7bc 17ea 08be
00000160: 651d 8b3d b641 dbbc 3758 df3c 759e f4bc
00000170: 20b5 c4bc d34b f63c 6c4e 713d 3a09 493d
00000180: 02bf 1abd 42a0 81bd 8285 9fbc b950 02bd
00000190: b093 5d3d 262b 7fbd ae89 d63c 24be 30bc
000001a0: 70fe cf3d a5b1 b0bc 9ce1 1fbd 56ab 35bd
000001b0: 8a19 64bd 1d76 1abd 17c6 2e3d f284 4e3d
000001c0: 167f a43c 329f f93d 7122 1d3d e078 45bd
000001d0: 8876 86bc aa71 d1bd c55c 0bbc 8ff1 283d
000001e0: b54c c73c aecf 51bd 331b 243d 80fa a8bd
000001f0: ffde e83c 3d95 55bd a1eb d1bd fa1e 853d
00000200: 84e5 293c 935a 07bd 49cb 8c3c 666a e3bc
00000210: 7fca cb3d e711 093c a2b4 d63d 79cd 3ebc
00000220: 8e12 61bc 1124 303d 1e5f cdbc 7425 06b9
00000230: 743e 033d 69f6 a53d f622 e5bc 1f10 2cbd
00000240: 33d2 31bb 92a4 11bd 2513 7b3c c335 b6bc
00000250: 1cbd 3fbd 017e 96bc 2ea6 a9bc aef8 f93c
00000260: 741d 4dbd d190 9f3c 4d2d 5d3c 646e 21bd
00000270: 196d 523d 2b42 f2bd 98a4 c7bc 159b 90bc
00000280: 2da7 a53c 0e45 a33d 918e 42bc 33b1 8a3d
00000290: 66eb 04be 7da9 71bd 77f3 463c 6985 ba3d
000002a0: 54d2 0f3d 4d21 97bb 6bfb 91bd 3b2d 233d
000002b0: 27f7 6d3c 4545 f83c 05d3 d53b 49fb 513d
000002c0: a01d 8c3d 36c7 063e 9fed 76bd 9df4 2c3b
000002d0: 1cf6 4fbd 0af7 91bb dc91 b8bb bd7c 0d3d
000002e0: 1904 22bd 397a 0f3e d859 ddbc f2fa 86bd
000002f0: 58e8 da3d 5084 efbc de58 703c 8a95 91bc
00000300: 1671 a6bc fdcf a83d 68cf 423c 8f3d e23c
00000310: b764 ec3b 2c2d 0fbc 290a c1bc 229a e6bc
00000320: 4cb4 b23d cfb9 9a3d 9e9f 2e3d d04f 01bd
00000330: 0f72 04bd 3654 a5ba bf98 9abd dee8 cbbc
00000340: c925 09bc 4684 95bc c56d fb3c e945 77bd
00000350: e1dc 31bd 7ec7 a3bb 503e 71bd 5c7e 02be
00000360: 17df c3bc f5d4 b4bd 83d0 973d 614a 003d
00000370: ddc2 bcbd 0e3d 6d3d 0957 dcbc cbca 40bd
00000380: eed0 003d 6985 91bd 2252 413c b454 ba3c
00000390: c8db 463d f7a0 343d 51a0 aa3b e600 393d
000003a0: 1e3e 52bb 1d64 7dbd f65d 203c f373 a5bd
000003b0: 9360 79bc ef62 9d3c cf40 fbbc 631d 08bd
000003c0: 2398 923d a9be e83c 67b7 ebbc 3fcb 95bb
000003d0: 61a2 d83c 310c 983d 9eea 573d 8fb5 7c3d
000003e0: 72a9 903c d3d2 853d c1bc 1e3d 6dc6 e3bd
000003f0: 9581 643c dd96 de3b 56e5 183c 32ae 153d
0.084751815 -0.11144703 0.03930553 -0.014320783 0.05490874 -0.01137172 -0.047284573 0.06428672
-0.020554485 -0.07599045 0.068302825 -0.06385091 -0.06251897 0.03469029 -0.05945572 -0.043471467
0.028460614 -0.06060877 0.0208925 0.0029015166 -0.030077532 0.04723323 -0.03185246 -0.0026098045
-0.031145232 0.10316935 -0.023933416 -0.0655569 -0.0031778854 -0.026384108 0.0010968646 -0.015050209
-0.0009641804 0.055308584 0.016966317 -0.040032066 0.016989266 -0.010248786 -0.037274763 0.013959214
0.09271957 0.19299558 -0.0015582102 -0.0048361626 -0.07041245 -0.08073576 0.022579335 -0.003500061
-0.017463924 0.06395265 -0.022962065 0.094661936 -0.09571605 0.03197471 0.015373158 -0.028789384
-0.012058603 0.124183446 -0.055333845 -0.046259794 0.043984696 -0.11248818 0.05454252 0.036972314
-0.013544858 0.040003944 -0.0028788312 0.01387844 0.043754667 -0.08315402 -0.00082718447 -0.056169793
-0.112083346 0.025547108 0.017293794 -0.101789154 0.029346475 0.05920744 -0.016857896 -0.10232433
0.042788446 0.032928612 0.028255427 -0.122646466 0.014305808 0.06415497 -0.028211953 -0.13370548
0.06792716 -0.026764732 0.027263744 -0.029860714 -0.024012148 0.030065453 0.05891268 0.049081065
-0.037779815 -0.06329395 -0.019472841 -0.031815264 0.054095924 -0.06229701 0.026188698 -0.010787521
0.10155952 -0.021569083 -0.039033517 -0.04435285 -0.05568842 -0.037710298 0.042669382 0.050419755
0.02008013 0.12188567 0.038362924 -0.04821098 -0.016413942 -0.10226758 -0.008506005 0.041245993
0.024328569 -0.05122345 0.040065 -0.08250904 0.028426645 -0.052144278 -0.10250021 0.06500049
0.010369662 -0.033045363 0.017186778 -0.027760696 0.099507324 0.008366085 0.10483672 -0.011645668
-0.013737334 0.043003146 -0.02506977 -0.00012793188 0.03204198 0.0810364 -0.027970772 -0.04200756
-0.0027133345 -0.035557337 0.015324389 -0.022242432 -0.046811208 -0.01837063 -0.020709123 0.030514088
-0.050076917 0.019478234 0.01349957 -0.039411917 0.051373575 -0.11829027 -0.024370477 -0.017652074
0.020221317 0.079721555 -0.011874811 0.06772079 -0.12980422 -0.058999527 0.0121430075 0.09107477
0.035112694 -0.004612124 -0.07128032 0.039838057 0.014524258 0.030306468 0.0065253996 0.051265035
0.06841588 0.1316193 -0.060285207 0.0026390918 -0.050771818 -0.004454498 -0.005632622 0.034542788
-0.03955469 0.14011468 -0.02702038 -0.06590833 0.10688847 -0.029237896 0.014669625 -0.017771501
-0.020317595 0.082427956 0.01189027 0.027617244 0.0072141546 -0.008738797 -0.023564415 -0.028149668
0.08725795 0.075549714 0.04263269 -0.031570256 -0.032335337 -0.0012613598 -0.07548665 -0.024891313
-0.008370825 -0.01825155 0.03069199 -0.060369406 -0.043423537 -0.0049981466 -0.058897316 -0.12743515
-0.023910088 -0.08829681 0.07412817 0.031320933 -0.09216855 0.057919554 -0.02689697 -0.0470684
0.03144925 -0.07105524 0.011799367 0.022745468 0.048549443 0.04409882 0.0052070995 0.045166872
-0.0032080482 -0.061863054 0.009788027 -0.08078756 -0.015220779 0.019212214 -0.030670552 -0.03323115
0.07157924 0.028411226 -0.028773976 -0.004571348 0.026444616 0.074242 0.052713983 0.061696585
0.017658923 0.06534352 0.03875423 -0.11121831 0.01394691 0.0067928866 0.009332022 0.03654308

fc1.bias f4 [128]
00000000: aa83 e5bd fc32 973c 5b2c 77be cd4b 9abd
00000010: 20e1 88bd c0ef e03d 3e57 663d 0618 36be
00000020: 2829 643c 92b7 87bd e236 24be 41cb 013d
00000030: e5b8 833d 6d01 023e 8950 483e f717 413e
00000040: 7eb5 e53d 4d77 4b3d 65fc 2a3d b212 3dbe
00000050: 7334 b8bd beb4 23be 75f6 b7bc fd8e fc3d
00000060: 73a0 1fbe 5c8b e1bd ee97 203e 240f cb3d
00000070: f735 afbd dd20 30be c1b9 72bd 53b2 47be
00000080: e4f8 a73a 8313 66bc 0a72 6c3c 2184 ffbc
00000090: cdc3 7a3d fc57 96bd 020a 133d 71c1 51bd
000000a0: 57f9 d93d ac0d 123b 0a9a 0a3e cd85 2dbe
000000b0: 5e98 903d 7bae 9cbd 20d2 0e3e 8ccb 33be
000000c0: 1c3e 2abe 4efc 89bd 4dee b93d fed0 b93d
000000d0: 27c6 143d 9518 3cbd 2db7 1a3e ada0 24be
000000e0: f989 39bb 010e 8e3c a09d 483e b1b4 5abb
000000f0: 8464 babd ff14 863d 4e35 333e b338 6abe
00000100: 2356 6cbe 5e49 7ebd 6357 18be c176 bebd
00000110: d747 53be da9a d4b8 8ec1 14be da39 773d
00000120: 7484 433e 34fc 55be 5c7c acbc 98eb 2c3e
00000130: 5141 273e c768 69bd 446d f43d b486 f73c
00000140: 7175 1a3e 9762 d6bc 9836 80bd 1c80 07be
00000150: 4862 c93c 2c65 5f3d 3ae1 12be 8911 5ebe
00000160: 5eee 693e 196b c8bd 0adf 97bd fcb2 87bd
00000170: de45 92bb 4d0a 59be 9874 f2bd 5a5f 633d
00000180: eb8c 003e a750 1a3e 87ce f6bd 696e 27be
00000190: c5dd 2fbe 170c b6bd 1a7c 7fbe f7ca 28be
000001a0: a07e edbd 436c 6a3e e808 11be f053 97bd
000001b0: e22f 6dbd 33c4 f73d e7db 6fbd b417 6f3c
000001c0: a4ad ce3d c1fc ce3d 7c35 c33d 00c8 a8bd
000001d0: cb1f 033e c85d 4abe 91af 2cbe 084a 2abd
000001e0: b469 7f3d ad26 a1bd 5508 5f3e 8ec5 0dbd
000001f0: 5aa0 ffbd c528 d7bd bb8c 7fbd 5f89 b63d
-0.112067536 0.018456928 -0.24138014 -0.07533989 -0.06683564 0.10983229 0.056235544 -0.17782602
0.013925828 -0.0662681 -0.16036561 0.03168798 0.0643175 0.12695856 0.19561972 0.18856798
0.112162575 0.04967432 0.04174461 -0.18464163 -0.08994379 -0.15986916 -0.022456387 0.1233196
-0.1558855 -0.11012909 0.15682957 0.09914997 -0.08555215 -0.17200036 -0.05925918 -0.19501619
0.0012815264 -0.014042738 0.014431486 -0.031190934 0.061221886 -0.073410004 0.035898216 -0.05120987
0.10643261 0.002228598 0.13535324 -0.16945572 0.07060312 -0.07650467 0.13947344 -0.17558116
-0.16625255 -0.067375764 0.090786554 0.09073065 0.036321785 -0.04592188 0.15108939 -0.16076918
-0.0028310998 0.017340662 0.19591379 -0.003337186 -0.09101203 0.065469734 0.17500803 -0.22873192
-0.23079734 -0.062081687 -0.14877085 -0.09299994 -0.20632873 -0.00010137791 -0.1452696 0.060357906
0.19093496 -0.20896989 -0.021055393 0.16886747 0.1633351 -0.05698469 0.11934903 0.030215599
0.15083863 -0.026170058 -0.06260413 -0.13232464 0.024582997 0.054539844 -0.1434373 -0.21686377
0.22844836 -0.09786052 -0.07415588 -0.066259354 -0.004463895 -0.21195336 -0.11838645 0.055510856
0.12553756 0.15069829 -0.12051111 -0.16350712 -0.17174442 -0.08889025 -0.24949685 -0.16483675
-0.115964174 0.22892861 -0.14163554 -0.07389057 -0.057906993 0.12097969 -0.058559325 0.014593054
0.10091713 0.10106803 0.09531686 -0.08241272 0.12805097 -0.19762337 -0.16863848 -0.041574508
0.062356666 -0.07868705 0.21780522 -0.03461223 -0.124817565 -0.10505823 -0.06239007 0.0891292

fc2.weight f4 [256, 128]
00000000: 3ca8 c6bc bae1 323b fc29 213e 0b34 ad3d
00000010: 779d 1ebe e906 5dbd 96e9 a0bb 1743 21bd
00000020: 51c0 bdbd bb1e 99b9 6cdd 8a3d c684 31b6
00000030: 4aa2 9cbc f406 2c3d fc0b 68bc 6094 d53d
00000040: 1f97 cabc 4ec1 e6bb 76cf 04bc 46e8 68bd
00000050: 923b 62bd 6b59 edbc d123 07bd 6b5b 663d
00000060: 3b17 31bd 157e 58be fcd1 af3c e3f7 863d
00000070: 253f 203d 7cef 4f3d 2fff 123e 00a3 22bd
00000080: c685 1dbb f0a1 b43d 1e2b 6cbc b223 593d
00000090: f401 90bc acdd 233d 5bd1 c6bc 1978 1d3b
000000a0: d0a1 4c3d 87d7 0cbd be64 3abd f626 2a3d
000000b0: 4e53 ad3d e32c e93b f3c1 483d 5824 4abd
000000c0: 24d1 5bbd 4ccf bebb fe6e 883b d450 793d
000000d0: 39c0 d0bd d088 bcbd 85ba f8bd 3f5e 013d
000000e0: 1e53 1bbd dad4 b9bc aaf4 643e a9a0 e0bc
000000f0: 6326 b53d 1b73 293d 8a45 e4bd 83e5 983e
00000100: a340 ecbd 24c8 9e3d 9c78 8cbd f9c4 82bd
00000110: 2c26 ec3d f757 653d 1cd8 5ebd 71a6 3e39
00000120: 335d d5bd c60c 223d 17fd 683b 7801 1b3d
00000130: 9f47 303c 55b2 ecbd 9272 0ebd 0288 753d
00000140: ac5a 9a3d 3638 20bc 7f38 e9bc 6470 083e
00000150: a61e ae3c 015c 1abe 08a5 14bd da49 773d
00000160: 1ee7 533d 5144 9dbd be87 d2bc cc6e fbbd
00000170: 786d bfbc a61c 88bd ef99 a8bc 3fc7 54bc
00000180: 360a 8dbd fe01 91bd e4d8 5d3c fc79 68bd
00000190: 5d28 8a3c 40c6 c9bd 9154 8b3e 5d01 913d
000001a0: 9266 a8bc 29a3 443c 0fcd 87bc e313 003d
000001b0: 16fc debc 4ef0 87bd 6024 8dbb 6747 df3c
000001c0: 1e25 0a3e 6f72 353d 246a 97bc 2be8 77bc
000001d0: 16bd 13be 4d30 133e 44c6 77bd daf6 f2bc
000001e0: 6bce 0abe 395d 72bc 39d7 d6bc f7ec 2dbd
000001f0: 1287 0ebb f683 b5bb 56e8 4f3c c05d d1bb
00000200: 9aed a03d 3961 c83c 810e 063d a7ee 7ebc
00000210: 2797 b1bd e03a c93c 1048 cf3d 1814 d9bd
00000220: 98cd 6bbd 5a89 423c 7496 243d dee0 85bb
00000230: 99f4 483d ad20 b5bd 63e9 73bc 8be9 d93c
00000240: 88cc 40bd 6fb9 883c 01e3 60bd 1b08 7ebd
00000250: a114 9a3b 3c5c 5cbd a2ff 57bd 9012 0ebd
00000260: 0076 fc39 243c 51ba 5e1e c7bd 9a6f d1bd
00000270: 40d1 aabd 358e 64bd c740 b7bd 9221 bdba
00000280: 3a71 0abe 88e1 c6bc 7109 4b3c 88f0 29bd
00000290: f061 46ba e1cf 8d3c bf7d c4bd 1434 efbc
000002a0: 19c4 453d 703b 25bd e8b0 503c 7948 a4bd
000002b0: 5133 1e3c a8c3 a7bb f6c4 71bd 6b5d cf3c
000002c0: 1c0e ce3c 43ab 69bd 34cd 853d 8d05 ebbc
000002d0: 11e5 26bd 9454 763c d05c 6dbb 92ab 55bd
000002e0: 1f74 ad3d cc18 10bd 27d6 81bd 2b9a acbc
000002f0: 0f67 6a3c bab9 2abd 8dde 85bc 4f40 e1bd
00000300: 389d 28bd 0aec aa3d 8a6e 833d 71c0 b3bc
00000310: ba0a 4b3c 6335 d2ba 7f5a 643d 38cf b73d
00000320: bdfa 393c efe8 c53d e33e 973d b129 dd3c
00000330: aa41 0c3d 960d 883d 5b34 8cbd d194 14be
00000340: 87aa e53a 8fd7 98bd 8e79 9c3d c53f 79bd
00000350: 6338 aebd 3be7 ecbd 7db2 87bc 5001 d73a
00000360: 7aa7 e7bd 7b88 c33c 4895 e4bc 8742 c2bd
00000370: 1852 8abd f5fa f9bd 0bf2 0abd b949 903c
00000380: bba8 e83b b9a3 a83d 44d2 ad3d 73fc ddbd
00000390: 4025 1cbd 03d3 e1bc b5a0 963d 1465 0e3a
000003a0: 61c7 dabd 4c94 b5bc b0af 54be 333f 9ebd
000003b0: 40f6 093d 0342 9bbd 44ef 953c d04a 9dbd
000003c0: c629 6bbc 28cb b7bd 0853 5cbb deb8 6abd
000003d0: 5c2b 0bbe f330 bebd 2606 053d c3cc 6cbd
000003e0: 120e f5bc 1710 7d3b 78bd 5abd 1feb 353d
000003f0: ba13 df3d edf0 073e 6ebd 5abd 22d5 083c
-0.024250142 0.0027295188 0.15738672 0.08457192 -0.15489756 -0.05396167 -0.004910658 -0.039370622
-0.09265197 -0.0002920533 0.06780514 -2.645234e-06 -0.019120354 0.04199882 -0.014163014 0.10428691
-0.024730263 -0.0070420867 -0.008106103 -0.05686214 -0.055232592 -0.028973302 -0.03299314 0.056239527
-0.043235045 -0.21141846 0.021462433 0.065902494 0.03912272 0.0507655 0.14355157 -0.03970623
-0.0024036034 0.088199496 -0.014414577 0.053012557 -0.017579056 0.040006325 -0.02426975 0.0024027883
0.049959004 -0.03438523 -0.04550623 0.041541062 0.08463155 0.0071159466 0.04901309 -0.049351066
-0.05366625 -0.0058230516 0.004163622 0.0608681 -0.101929136 -0.092057824 -0.12144951 0.03158402
-0.037921064 -0.022684503 0.22358957 -0.027420359 0.08845212 0.04136954 -0.11146076 0.29862604
-0.11535766 0.077530175 -0.06858942 -0.06385226 0.11530718 0.055992093 -0.054405317 0.00018181816
-0.10418167 0.039562963 0.0035551244 0.037843198 0.010759263 -0.11557452 -0.03477723 0.05994416
0.075368255 -0.009779027 -0.028469322 0.13324124 0.021254849 -0.15074159 -0.0362902 0.060373165
0.051734082 -0.07679046 -0.025699493 -0.12276992 -0.023367628 -0.06646089 -0.020581214 -0.012986957
-0.06886713 -0.07080458 0.01354048 -0.05675696 0.01686495 -0.09852266 0.27212957 0.07080338
-0.020556722 0.012001791 -0.016577272 0.031268965 -0.027219813 -0.06637631 -0.0043073148 0.027255727
0.13490722 0.044298586 -0.018483229 -0.015131037 -0.144276 0.14373894 -0.060491815 -0.029658724
-0.13555305 -0.014792734 -0.026225673 -0.042462315 -0.0021747989 -0.0055394126 0.012689671 -0.0063893497
0.07857819 0.024460422 0.032728676 -0.015559829 -0.08671408 0.024564207 0.10121167 -0.10599536
-0.057569116 0.0118735675 0.040182546 -0.004085644 0.04906139 -0.08844123 -0.014887187 0.02660062
-0.047070056 0.016689984 -0.054903988 -0.06201945 0.004702166 -0.0537989 -0.052734025 -0.03468567
0.00048153102 -0.0007981679 -0.09722589 -0.102263644 -0.083406925 -0.05579968 -0.08947902 -0.001442956
-0.13519755 -0.024277464 0.012392388 -0.041489154 -0.00075676944 0.017311038 -0.09594297 -0.029199637
0.048282716 -0.040339887 0.01273749 -0.080216356 0.0096557895 -0.0051197596 -0.059025727 0.0253131
0.025153212 -0.057048094 0.0653328 -0.02868917 -0.0407458 0.015034813 -0.003621865 -0.052165575
0.08469414 -0.0351799 -0.063396744 -0.021069607 0.014306798 -0.04168103 -0.016341472 -0.10998594
-0.04116556 0.08345802 0.06417568 -0.02194235 0.012392694 -0.0016037639 0.055750366 0.08975071
0.011351285 0.09663569 0.073850416 0.02699742 0.03424231 0.06643216 -0.068459235 -0.14509894
0.0017522135 -0.074629895 0.07640372 -0.06085183 -0.08506849 -0.11567541 -0.016564602 0.0016403589
-0.113112405 0.02386879 -0.027903214 -0.09485345 -0.067539394 -0.122060694 -0.033922236 0.017613279
0.0071001924 0.082343526 0.084873706 -0.108391665 -0.038121462 -0.027566439 0.07354871 0.0005431932
-0.1068256 -0.02216544 -0.20770144 -0.07726898 0.033682108 -0.0758095 0.018302567 -0.07680285
-0.014353221 -0.08974296 -0.0033618826 -0.05730521 -0.13590759 -0.0928668 0.032476567 -0.057812463
-0.029913936 0.0038614327 -0.053403348 0.044413682 0.108924344 0.132755 -0.05340331 0.008351596

fc2.bias f4 [256]
00000000: bd71 bd3d bc49 d23d a35e bd3b b234 123d
00000010: 0b90 f23d 674c cd3d 9c68 823d 4746 82bc
00000020: e196 cf3c f8f6 853d f8be 43bd ee1d cb3d
00000030: fe13 e63d a26c 163e a72d 293d f342 db3d
00000040: 37e4 6d3c e3d4 053e 98b6 14bd ac64 2a3d
00000050: a2c0 593d 1497 3d3c 58c9 ea3b 7d1c e23d
00000060: 7f10 043e a51b c43d c70d f03c b5c9 a33d
00000070: 58df 803d 7c38 303e 3337 07bc 5f6d 11bd
00000080: 2baf 583b ccd5 12bd 9775 d43d a7ac 0a3d
00000090: 0db8 e53c a9fc 203e 0f96 ce3d b74c ac3c
000000a0: ef75 103e 8d16 fe3d 032b 023e f674 d03d
000000b0: 0b78 eebc 8aca f73c 525f c53d 63ff ed3d
000000c0: 0155 8d3c 8ef3 723d 7a6a 273d 1549 853d
000000d0: b515 86bb a0c6 f03d 1c95 9f3d 6bc1 fc3d
000000e0: bf09 a73d c4e3 b23c 7666 0abc 21c3 753d
000000f0: 42dd 08bc c67c 713d 2614 123d 0def 97bc
00000100: dbd6 6b3d 46c5 033e 8fd4 c33d cbfd 5f3c
00000110: b9b5 ec3d 0333 b63d 166c c93d bb5f 833c
00000120: df0a ab3d b0ea 7d3d 98e5 2ebd 4d29 083c
00000130: 6add fa3d 8b3d d93c e6ce a7bb a225 9b3c
00000140: d892 7b3d d0fa 1f3e 956f b33c 6eb4 923d
00000150: 7ad8 413e 88a2 c33d df99 423c 65c3 b43d
00000160: 30ed be3d 3de4 a63c cd71 fbbc a19e 853d
00000170: 7186 c93d ac04 0b3e bfc2 fd3c d5d4 17bd
00000180: a8ea c43c d256 173e 1c97 bd3c d85d aa3d
00000190: 6db3 0a3d 3bce db3d 0eca 893d 27fe 9e3d
000001a0: a183 b73d bc9e 133e 27cc 11bd 01a5 b33d
000001b0: 1289 ee3c c3fb 1e3d 5be1 af3d 2131 be3d
000001c0: 32fa 663d 93d6 c23d c587 443d 3bb1 debc
000001d0: 9cc9 903d 3266 753d c3e0 ab3d 908e b3bc
000001e0: a309 f13d 6da8 543d 058e b63c 9082 e53d
000001f0: 22cc 253d 155f a63d f810 ce3c 35c7 0ebd
00000200: 10f2 87bb 2fec 1dbb 44fd 1ebd 4bc6 873d
00000210: f7b0 943d 56df e23d 4331 203c 28e9 ed3c
00000220: aba9 4c3d e650 793d f3e2 fd3d fe34 aa3d
00000230: b876 e53d 2c77 1d3d 9a0d dc3d 3e14 c93d
00000240: 84ab fb3d e001 8b3b d5cf ee3d 0673 263e
00000250: 3087 e63d 70bd 9b3d 0f0e bb3d f3b4 c53d
00000260: 145e 233d 2a73 b43d 4ca0 a63c 5d05 e43d
00000270: 848b db3d a2c5 a43d 2154 f93d 5d6b ea3d
00000280: 10b7 903b 0906 133e c2ea 2d3d 13f8 7ebc
00000290: cf34 d43d be56 2e3e 6de9 ca3d 9f69 4f3d
000002a0: 1e4c a2bc 836a bb3d 70ba 0b3d 5d9a cd3d
000002b0: 671e b13d 4690 aabc 30a6 df3d b835 c03d
000002c0: 58ee fa3d fdc9 9d3c 386f ac3d b2e8 493d
000002d0: e3fa 0c3e 0863 7c3c 9377 9fbc e45c 1a3e
000002e0: d1c8 103d 20f6 e23d 0b85 d43d c832 b1bc
000002f0: 56c5 803d 2c8b 193d 0fdb 15bd c573 be3d
00000300: 5ccc 8d3d 590c d7bc eaf8 2a3d cdb3 8cbc
00000310: fc89 6d3d f9a4 a43d 758b 873d 83cc 993d
00000320: d245 4e3d 8cba 7cbc abdd d33d 515c 273e
00000330: 4fe0 1b3e 42e5 47bc 5bb9 e43c 311b da3d
00000340: 88f8 103e 1fb9 8f3c 9d7b 823c 0aaa 0a3c
00000350: 1bfe e53d 523d e23d 6ea8 0ebc 8dc1 b53d
00000360: de76 033e b1cc b43d d847 ab3d 1ee4 aa3d
00000370: c753 b83d 0b98 143e 8fb2 ad3d e266 c6bc
00000380: cdad 4f3d 45ea 28bc 7449 b33c 2e31 4c3d
00000390: 6674 fcbc a952 d43d f33d a1bb 01e6 f13d
000003a0: e54e 893d 4636 c4bc c330 933c d38c b2bb
000003b0: ab7c e5bc 5f29 f43c 1dd8 c83d 01d5 893d
000003c0: 5778 56bd fc55 a23d 459e 0fbd a5b5 283c
000003d0: 0a40 fe3d 8c71 073e 8058 2a3e d513 0abc
000003e0: 0b85 dc3d 6b0c 903c ac3c 073d c7aa cb3d
000003f0: 73c0 ff3d f9d9 bf3c 22a5 173e fdfb b33d
0.092502095 0.1026797 0.005779104 0.035694785 0.1184388 0.10024338 0.06367609 -0.015902651
0.0253405 0.06541246 -0.047789544 0.09917818 0.11234282 0.14689878 0.041303303 0.10706129
0.014519743 0.13069491 -0.036306947 0.041599914 0.053162225 0.011571664 0.0071651153 0.1104059
0.12896918 0.09575585 0.029303445 0.07997457 0.062925994 0.17209047 -0.008252907 -0.035504695
0.0033063393 -0.035848424 0.10373991 0.03385606 0.028041864 0.15721382 0.10087215 0.021032674
0.14107488 0.12406645 0.1271172 0.101785585 -0.029109975 0.030247945 0.096373215 0.11620977
0.017252447 0.059314303 0.04087303 0.0650808 -0.004091943 0.11756635 0.07792112 0.12341579
0.08156156 0.021837123 -0.00844728 0.060000543 -0.008353533 0.058956884 0.035663746 -0.018546605
0.05757795 0.12868223 0.09562027 0.013671349 0.11558098 0.088964485 0.09835069 0.016036859
0.08351683 0.061991394 -0.042699426 0.008310628 0.12249263 0.026518604 -0.0051210998 0.018938843
0.061419338 0.15623021 0.021903792 0.071633205 0.18930236 0.09552485 0.011877506 0.08826331
0.09322584 0.020372504 -0.030693913 0.06524397 0.09840096 0.13576001 0.030976651 -0.037068207
0.024037674 0.14779213 0.023143344 0.083186805 0.03386252 0.10732695 0.06727992 0.077633195
0.08960653 0.14416021 -0.035595085 0.08771706 0.029118095 0.038814317 0.08587905 0.09286714
0.05639095 0.09513583 0.047981042 -0.02718412 0.07069704 0.059911914 0.08392479 -0.021918565
0.11769416 0.051918436 0.022284517 0.112065434 0.04047788 0.08123604 0.025154576 -0.034857947
-0.004148729 -0.0024097075 -0.03881575 0.06629618 0.07260316 0.11077754 0.00977737 0.029041842
0.049966495 0.060868166 0.12396803 0.08310889 0.112042844 0.03844373 0.10744782 0.09818314
0.122885734 0.004242167 0.116607346 0.16254815 0.11256254 0.07604492 0.09133541 0.09653654
0.03988464 0.08811028 0.020340107 0.111338355 0.1071997 0.08045508 0.121742494 0.11446259
0.004416354 0.14357771 0.04246021 -0.015562075 0.10361635 0.17025277 0.09907804 0.050637837
-0.019811686 0.09151175 0.034113348 0.10039208 0.08648377 -0.020820748 0.109203696 0.09385246
0.12252492 0.019261355 0.08419651 0.04929418 0.1376758 0.01540447 -0.019466197 0.15074497
0.035347763 0.11082101 0.103769384 -0.02163066 0.06287639 0.03748624 -0.036585864 0.09299425
0.06923744 -0.026251005 0.04174129 -0.01717558 0.05799292 0.080392785 0.06618396 0.07509711
0.050359555 -0.015425336 0.10345014 0.1634381 0.15222286 -0.012200655 0.027920416 0.106497176
0.14157307 0.017544327 0.015928084 0.008463392 0.112301074 0.11046852 -0.008707149 0.088748075
0.12838313 0.08828104 0.083633125 0.08344291 0.09000354 0.14511125 0.08481323 -0.02421898
0.05070286 -0.01030976 0.021885611 0.04985159 -0.030817222 0.10367329 -0.004920715 0.11811448
0.06704501 -0.02395166 0.017967587 -0.0054489165 -0.028013548 0.029804884 0.09806845 0.067300804
-0.05236086 0.079265565 -0.035063047 0.010297214 0.12414558 0.13226908 0.16635323 -0.00842758
0.107675634 0.017584046 0.033016846 0.099446826 0.12487879 0.023419367 0.14809087 0.08788297

fc3.weight f4 [2, 256]
00000000: d328 293e 75de 5fbd 50ba 5dbd 4be6 283e
00000010: 8cea 3bbd 8bfd 213e 3ef5 d8bc 4d11 b0bc
00000020: b90f 913e ce65 bcbd fd67 0ebd 8414 15bd
00000030: 9333 e7bd e12a 01bd e8b2 25be 112b 873e
00000040: 561e d33d 9226 9cbd 4368 c739 2320 9bbd
00000050: aabb 333e 335f 3d3d 726e a33e bc54 0abe
00000060: c81b 2fbd dd60 34bd 5978 93bd ae89 0fbe
00000070: 2dbb febd 7540 80bd 1496 8a3d a15e c03d
00000080: a13d ce3d 4775 253d a379 263e f660 2c3d
00000090: e262 43bd 6892 563d e23b b73c dcaa 21be
000000a0: f1cc 7fbd 7e94 73bd 1ee0 78bd 9c26 58bd
000000b0: ecd9 23be 8206 043e 144f 85bd d8c6 d5bd
000000c0: 7a17 c93c d6bd b5bd 354b 9abc 136f 173e
000000d0: 22bd 403e 5d8c 423d afa3 523d 2dbe babd
000000e0: bb10 793d 4459 a73e fdf4 8d3d 0f4a bb3c
000000f0: c8e2 f03d f0e9 9cbb 28f8 013e dffb ec3d
00000100: 2b3d b2bd 0111 a5bd f302 403e a2e7 91bc
00000110: 60cb 9abd 35ab 91bb 127e 38bd 659f 483a
00000120: 0b60 043e 9b11 9f3c 4d20 1f3d 1f51 aebc
00000130: bac8 d03d 3ec5 083e e430 b5bd 9746 51bd
00000140: 1995 b7bd 6443 333e 8a94 283d 7770 dcbc
00000150: 8ff9 973c 1802 cfbd e947 1c3d d005 04be
00000160: 580d 823d 5145 f7bd 955b 0a3e 4a65 97bd
00000170: 4e89 29bd 336c e8bd f39d 65bc 3078 823d
00000180: fed2 acbd a8f1 30bd 4cbd dc3c f1eb da3c
00000190: ed9a af3e a989 53bc d1a0 2c3d 0446 e53d
000001a0: 08ca ccbd f82d 87bd a24a a13d ff73 5b3d
000001b0: 00f0 2a3e 1470 26bc 00ae 653e 7621 133e
000001c0: d703 a73d eb6b 72bc 84ba 5e3e 986f 313e
000001d0: c4aa 7b3c d252 cb3d 2646 db3d 7cb1 6d3d
000001e0: 3cf3 ac3d c89d 9dbd 0c78 0c3d 50d8 653c
000001f0: 032a e0bd 70da 453d b2b3 613d 9fd4 8e3e
00000200: dea2 013c c5e6 c0bc f69d 0abe 8d3a fc3d
00000210: e3af a53d b268 2a3c 86a9 0c3e 7e8d acbd
00000220: 98bf a5bd 657e 143e ff24 18bd 7a9c f5bc
00000230: aba2 e2bc 2fee 3f3e 875a 2a3e 78c8 143e
00000240: d99c 8ebc 66d0 c6bc 5698 d9bc d897 a1bc
00000250: b3fe 2b3e b371 01be b123 113e 5ead fdbc
00000260: 9d6a 5bbc 8576 043e 075e a93e 5f4c 47bd
00000270: 90d2 ce3c 44d9 11bd e188 e4bd f11e b1bd
00000280: c813 b8bd d08d fd3d b8a1 c03c ac45 22be
00000290: 1de7 03bd 1e1e 35bd 87a5 4ebd fde6 1dbd
000002a0: d197 03bd f177 be3c e8af 04be 59c2 a63d
000002b0: 2690 e9bd 13f9 33bd 1692 b33d 0729 673d
000002c0: f418 a6bc 0d11 2c3e 5498 fd3d 2714 a63c
000002d0: c97f acbc 8115 be3d fea3 a63d e0c3 38bd
000002e0: d2bc 913d aeed 913d 6f9a 943e be35 1abe
000002f0: d9e9 eb3d 8354 e73d a8e1 9c3d 1234 0ebb
00000300: 9d9a 9c3e e058 143e c4ae b8bc 24f9 8dbc
00000310: 8d80 503e 6949 3d3e fe94 373e 23be 27bc
00000320: 2706 3fbd 2918 2c3e 2a08 2cbd d230 dfbd
00000330: 422f cdbd 67af bd3c b8f6 093d b488 29bd
00000340: 05a9 a2bd 3418 9ebc 4fe2 fbbd cf93 913e
00000350: d3fc 383c d6b5 d1bc 3519 723d 2383 abbd
00000360: a465 1dbd 3ac3 4fbd d7a1 4c3d e468 81bc
00000370: a402 b33d 477e 1bbe 01e0 91bc 6fc4 90bc
00000380: 6ad9 073e a40e 0b3e 5a98 f03d 6713 32bd
00000390: 4378 963d 24fa f7bd 7c16 f63d 56a4 b7bb
000003a0: 65b5 22bc 1465 c6bd 2852 603d 88d9 2d3e
000003b0: 2c14 cfbd 9c52 14be 6758 cabd 1529 543e
000003c0: aae5 693d e3a0 b2bd 76bb 613d 8dd0 183e
000003d0: dc7e d5bc 754a b2bd aa09 2fbd a520 803e
000003e0: f551 8f3d 8b09 5c3d 2cd8 f53c c10b 2c3e
000003f0: b046 b7bd c57a c93d 5d5d 3abd ada9 e2bd
0.1651948 -0.05465551 -0.05413276 0.164941 -0.04587798 0.15819375 -0.026484128 -0.021492625
0.28332308 -0.09199105 -0.03476714 -0.03639652 -0.11289134 -0.031535033 -0.16181529 0.26400045
0.103085205 -0.07624544 0.0003803392 -0.07574489 0.17552057 0.046233367 0.319202 -0.13508886
-0.042751104 -0.04403769 -0.07200689 -0.14017364 -0.12438045 -0.06262294 0.067669064 0.09393049
0.100703485 0.040395048 0.16257338 0.042084657 -0.047701724 0.052385718 0.022367422 -0.15787834
-0.062451307 -0.059467785 -0.06076061 -0.052771196 -0.160011 0.12893108 -0.065092236 -0.10438317
0.024547327 -0.08874099 -0.01883469 0.14788465 0.18822148 0.047497142 0.051425632 -0.091183044
0.06080697 0.32685292 0.069314934 0.022862462 0.11762005 -0.0047886297 0.1269232 0.11571478
-0.08703073 -0.08059884 0.18751125 -0.017810646 -0.07558322 -0.0044454583 -0.045042105 0.0007653146
0.12927262 0.019417575 0.038849164 -0.021278916 0.101945356 0.13356492 -0.08847216 -0.05109271
-0.08963985 0.17506176 0.041157283 -0.026909096 0.018551616 -0.10107821 0.038154516 -0.12892842
0.06350201 -0.12073768 0.13511498 -0.07392366 -0.04139071 -0.11348762 -0.014014709 0.0637058
-0.08438681 -0.04319921 0.026945733 0.026723834 0.34297886 -0.012911239 0.042145554 0.11194995
-0.09999472 -0.06600565 0.07875563 0.05357742 0.16693115 -0.010158557 0.22429657 0.14368233
0.08155029 -0.014796237 0.21750838 0.17327726 0.015360538 0.09927906 0.10706739 0.05803059
0.08444831 -0.0769611 0.034294173 0.014028624 -0.10945513 0.04830402 0.05510301 0.27896592
0.007912366 -0.02354754 -0.1353682 0.12315855 0.08090188 0.010400938 0.13736543 -0.08425425
-0.08093184 0.1450134 -0.037144657 -0.02998184 -0.027665457 0.18743204 0.16636096 0.14529598
-0.017408775 -0.024269294 -0.026561897 -0.019725725 0.16796379 -0.12641029 0.14173771 -0.030966457
-0.013392118 0.12935837 0.3307955 -0.048656818 0.025246888 -0.03560759 -0.1115892 -0.0864848
-0.08988148 0.12380564 0.023514614 -0.1584689 -0.03220283 -0.044218175 -0.050450828 -0.038550366
-0.032127205 0.023250552 -0.12957728 0.081425376 -0.11404447 -0.043938708 0.08768098 0.05643561
-0.02027557 0.1680338 0.1238257 0.020273281 -0.021057026 0.09281445 0.08136748 -0.045108676
0.07116093 0.07125412 0.29024073 -0.15059564 0.11519212 0.11295416 0.07660228 -0.0021698517
0.3058671 0.14487028 -0.022544272 -0.017330714 0.20361538 0.18485035 0.1792793 -0.010238203
-0.046636727 0.16806091 -0.041999973 -0.108979836 -0.10018779 0.023154927 0.033682555 -0.041390136
-0.07942394 -0.01929865 -0.12299024 0.28433082 0.011290747 -0.025599401 0.05910607 -0.08374622
-0.03842701 -0.050723292 0.04995903 -0.015797086 0.08740738 -0.1518489 -0.017807009 -0.017671792
0.1326653 0.13579804 0.11747809 -0.043475535 0.07347157 -0.121082574 0.12016007 -0.005604307
-0.009930943 -0.09687248 0.05476585 0.16977513 -0.10111269 -0.14484638 -0.09880143 0.20718797
0.05710379 -0.08722093 0.055110417 0.14923306 -0.026061468 -0.08705608 -0.042733826 0.25024906
0.06998054 0.05372004 0.030010305 0.16801359 -0.089490294 0.098378696 -0.045499194 -0.11067519

fc3.bias f4 [2]
00000000: cd2a 01bc 8704 d03c
-0.00788374 0.025392784

bn1.weight f4 [128]
00000000: 558e dd3e ad26 193f aa9a 5d3f 8754 633f
00000010: bd12 a83e 8c58 303f df5f a13e 2f5e 8e3f
00000020: 236f 7b3f 125f 0b3e eacf 033f 5ccd 1f3f
00000030: 6815 103f 824f c43e 4a8d 473e d075 8b3e
00000040: 388a bd3e c097 b33e f7ae 5a3e c6eb 0d3f
00000050: 1999 063f a54c d63e a2e3 093f b05b df3e
00000060: 3d98 843f 8c3b 573f b5d2 2b3f a173 cd3e
00000070: 7938 233f 8f6b c83e 7a28 433f f7c1 143f
00000080: 6c4e 0a3e ff93 853e 582a 653f efe8 303f
00000090: 7f21 e83e 86ed 7e3f af47 2c3f dda4 653f
000000a0: 6b32 403f 5e49 5c3f 4ed8 d83e bffd 813e
000000b0: 4b32 ea3e 2453 483f 1fb8 aa3e 9f5c a03e
000000c0: 70e6 383f 230b 4f3f 9374 833e 615c 683f
000000d0: efb1 893f a624 7c3f b4a5 303f b039 483f
000000e0: 17ed 213f 6519 2c3f 3f58 773f 5872 243f
000000f0: aa1b 3b3e a6c8 443f 5575 1c3f 1461 f03e
00000100: 0a91 593f 1c15 b23e b7e2 583f aaea f53e
00000110: 544b 763f 571c 603f bbb5 8a3f caef 5c3f
00000120: 0eed 1b3f ab33 533f 8f8d 483f 79f3 193f
00000130: b0cf 863f 71d1 5d3f 3deb 3a3f f36b 093f
00000140: 05e2 ef3e eaa9 223e abb2 8c3f 5f25 8d3e
00000150: 4067 6c3f ffb3 023f 7bda 243f f5ef 433e
00000160: 98e3 983e 24fc 403f 4b08 593e d2e6 273f
00000170: 28b2 783f 0c49 263f e24d 633e f536 533f
00000180: 9ac3 c53e 6bdf d43e 541b 3e3f 666b 903e
00000190: 0439 813e bafd 2a3f 96a8 a93e 5808 243f
000001a0: 67ba 863f 3525 513f 4d0f b23e f737 233f
000001b0: 1905 243f 2ae1 1a3f 76c8 893e 0fac 643f
000001c0: 7e68 053f d7dc 7c3f 24a7 713f 74bf 823f
000001d0: 6425 233f ba41 8e3f 4364 c03e 3b44 493f
000001e0: 6f7f 093f cf4e 1b3f b5b9 7f3f 1238 6d3f
000001f0: b08f bd3e 3e3e 713e 3f9c 393f ae08 843f
0.43272653 0.5982464 0.86564124 0.88800853 0.32826796 0.6888511 0.31518456 1.1122493
0.98216456 0.13610485 0.51489127 0.6242273 0.56282663 0.3834191 0.19487491 0.2723832
0.37019515 0.35076714 0.21355806 0.55437887 0.5257736 0.4185535 0.53862965 0.4362464
1.035896 0.84075236 0.6711839 0.4012728 0.63758045 0.3914456 0.7623364 0.58108467
0.13506478 0.26089475 0.89517736 0.6910543 0.45338055 0.9958118 0.6729688 0.89704686
0.7507693 0.8604945 0.42352527 0.25388905 0.45741495 0.7825186 0.33343598 0.31320664
0.7222662 0.8087637 0.25674877 0.9076596 1.0757426 0.9849342 0.6900284 0.78213024
0.63252395 0.6722625 0.9661903 0.64236975 0.18272272 0.76868665 0.61116534 0.46949065
0.8498694 0.3478173 0.8472094 0.48030597 0.9620869 0.87543243 1.083671 0.8630339
0.6090859 0.82500714 0.78341 0.60137135 1.0532131 0.8664771 0.73015195 0.5368034
0.46852127 0.1588513 1.0992025 0.27567574 0.92345047 0.510559 0.64395875 0.19134505
0.2986114 0.75384736 0.2119457 0.6558658 0.97146845 0.6495521 0.22197679 0.8250573
0.38625795 0.41576704 0.7426045 0.28206939 0.25238812 0.66793406 0.33136433 0.6407523
1.0525635 0.816974 0.347773 0.6375727 0.6407028 0.60499823 0.26910752 0.8932504
0.5211257 0.98774475 0.9439566 1.0214677 0.6372893 1.1113808 0.37576494 0.78619736
0.53710073 0.6066713 0.9989274 0.9266368 0.37023687 0.235589 0.7250404 1.0315149

bn1.bias f4 [128]
00000000: 50c5 0ebd 744e 86bd f2a6 dcbd 15e8 f23b
00000010: 3e8e 50bd ab3f 05bc ba10 9ebd 4d08 5ebd
00000020: 7ed1 96bd c378 25bd 6034 31bb e6cb 6f3c
00000030: db4c 45bd b24d 3d3d e1f9 443d dc54 0aba
00000040: b5c9 4cbd 30f0 b13c 19ac fb37 162e c4bd
00000050: c06a 643c 2801 b5bc fdd4 0fbd ba15 823c
00000060: 1a96 25bd b723 9a3c 9b89 cdbc 7328 8abd
00000070: 1c1a 0dbd e624 08bd 287e d9bd 1793 b6bd
00000080: bc2b a5bd ed45 1b3d 5c41 cf3c a0ba f33c
00000090: 1e49 4dbd 309d 8bbd 7c56 283d aae2 cfbc
000000a0: 49e7 503c f83e 2c3d 6308 22bc 87b1 d2bd
000000b0: c0d9 95bd 2805 c83b 9792 bd3c 9cf9 25bd
000000c0: 8209 3f3d 1f24 d1bc 47b0 febc 300f a3bc
000000d0: 0c60 b03b f675 e2bc 1f43 1b3d 09cc bc3c
000000e0: 29cd 253c 4f42 72bc c7f5 c3bd 1096 053b
000000f0: 8e92 703d c496 1cbd d629 78bd ce83 c5bd
00000100: 6285 fdbc 9a4b 183d aaa5 4abd 093a c4bc
00000110: 9949 003d 7353 08bd 4d96 6cbd 5f34 a1bc
00000120: b610 473d 1509 17bd 245e a2bc 1311 573d
00000130: ae9b 39bc c995 3b3d 9511 59bd fc6c abbd
00000140: 79ed 80bc 3722 5abd c181 af3c be98 8dbd
00000150: b7c6 93bc f11d 93bb 7f94 26bd c5b2 84bd
00000160: 85b7 183c 159c 09bc 3a2f 8ebd 7500 543d
00000170: d4a2 943d e302 98bd 3edd b2bd 285a a2bd
00000180: d4f4 113d d0f4 2abd 7e98 fa3c 03cd 6abd
00000190: fd24 e33c 4a79 36bd 84fc ca3d 4d1e 05bd
000001a0: d137 2abd 27f2 b1bd c74f 073d c327 17bc
000001b0: fa1f 03bd 6b3a 1ebd b737 86bd c6d5 46bd
000001c0: 988a a0bd 09f3 ff3c 7441 a03a fff1 75bb
000001d0: 9ad1 bbbb 18e0 b8bd 722c 5fbd 40b1 2b3d
000001e0: cfad 083d 04bb 4bbd 9175 9b3d ed1c 69bd
000001f0: 47ea 0fbc 247c 50bd 37eb 59bd fd8c 383c
-0.03485614 -0.065579325 -0.1077403 0.0074129202 -0.050916903 -0.008132855 -0.07718034 -0.054207135
-0.07364176 -0.04039837 -0.0027039275 0.0146360155 -0.048169 0.046216674 0.048089866 -0.0005276927
-0.04999705 0.021720976 3.000167e-05 -0.09579103 0.013941467 -0.022095278 -0.03511523 0.0158795
-0.04042635 0.018815858 -0.02509003 -0.06745996 -0.034448728 -0.033238314 -0.106197655 -0.08914774
-0.08064982 0.037908483 0.02529972 0.029752076 -0.050118558 -0.068170905 0.041098103 -0.025376637
0.012750455 0.04205224 -0.009889695 -0.10287767 -0.07316923 0.0061041303 0.023141189 -0.04052125
0.046639927 -0.02552992 -0.031089915 -0.019904703 0.0053825434 -0.027644139 0.03790581 0.02304651
0.010119715 -0.014786317 -0.09568363 0.0020383634 0.058733515 -0.03822972 -0.060586773 -0.096442804
-0.030947391 0.037181474 -0.049474396 -0.023953455 0.03132019 -0.03328271 -0.057760525 -0.019678293
0.04859992 -0.036873896 -0.01982028 0.052506518 -0.011328621 0.045797143 -0.052995283 -0.083703965
-0.015738236 -0.053255286 0.021424176 -0.06913899 -0.01803909 -0.0044896533 -0.04066896 -0.0647941
0.009321098 -0.008399029 -0.069426015 0.05175825 0.072576195 -0.074224256 -0.08733605 -0.07927352
0.035633877 -0.041737378 0.030590292 -0.05732442 0.027727598 -0.044549264 0.09911445 -0.0324996
-0.041557137 -0.08688765 0.033035066 -0.0092257885 -0.032012917 -0.03862993 -0.065535955 -0.048543714
-0.07838935 0.031243818 0.0012226538 -0.0037528274 -0.0057317736 -0.090271175 -0.054485746 0.041917086
0.03336888 -0.0497389 0.075907834 -0.05691235 -0.008783883 -0.05089964 -0.053202834 0.011264083

bn1.running_mean f4 [128]
00000000: c7ee 083e 97e8 223d ba4c e83c 7513 1040
00000010: ee41 433e 7023 853f bfe2 483e cb85 8f3e
00000020: 6f26 093e 14d7 913f abe3 b53f d791 b23e
00000030: 98b5 e73e bdb8 023d 4bfe 5e40 f66c 5a3f
00000040: 575e 9b3f 7e22 9c3e 8e87 9b3f 4a74 0f3f
00000050: aa6e d83d c20c e53e e82b a23f 0b8c 483f
00000060: d26b 913c 3cb5 993d ed6a 4b3d 6ec5 673e
00000070: 732e 9b3f a870 2c3f ff2a b83f bd54 d83d
00000080: 2b2f 053f a959 1840 38eb 833e 2682 3e3d
00000090: ad05 193d e0c0 cb3e 690e 213f f6f7 c83f
000000a0: 8ae4 623f 5361 703e d279 3b3f 0ffc a03c
000000b0: 0726 1c3f 64c0 4d3f d475 913e ec61 b63e
000000c0: c0d9 f43e b4d6 a43e 0bdf 093d 6c6f 1540
000000d0: 8605 333f f64c 823e e291 003f 48ea 803b
000000e0: 49e0 5d3d f0a0 a13e 7796 083d ed2c 693e
000000f0: a98f 273f 7a17 9c3f dbf4 8d3d c735 723c
00000100: 1b84 403e 1e8a 853c 729c 973e 6498 843e
00000110: e1a4 ea3e e690 303f 2128 f43d ecdc c63d
00000120: 11c6 9f3f c9a8 ae3c db67 a03e c023 2f40
00000130: 9648 473f 491b a03c 9b06 2a3f 6858 a03e
00000140: 3bdc e33f 1d6a 253e 3051 1c3d e0a6 293e
00000150: 0772 6b3e 7a39 203e e0d4 a13e a58b 943e
00000160: e0ad 683e 6648 133f 0879 6b3d 48fd a03e
00000170: d7ef 2440 9b73 493d 5220 053f 59c9 a03e
00000180: ff09 073f de48 8a3e 65f5 6f3d 891e 103f
00000190: 306e 413e 9c11 e13d 6fcb b53c 6a4b 3c3d
000001a0: 72e2 f53e 42c5 d33e 73e0 9f3c 00eb 373f
000001b0: 65bf d33e aac4 b13e 73ad f83c 9f82 bc3e
000001c0: 86ec 8b3f f66d 473f 935c 353f 07b7 2d3f
000001d0: 2008 953d fb0e a33e 5691 4f3f 1091 f13e
000001e0: da43 e73e 24e2 523f af94 8c3e 1032 4b3f
000001f0: d710 bb3c f5fe b33d ce41 b43d 29d9 773f
0.13372336 0.039772596 0.028356899 2.2511876 0.19068119 1.040144 0.19617747 0.28031763
0.13393568 1.1393762 1.4210104 0.34876892 0.45255733 0.03191446 3.4842708 0.8532251
1.2138165 0.30495065 1.2150743 0.5603682 0.105679825 0.44736296 1.2669649 0.7833869
0.017751608 0.07505271 0.04966252 0.22633907 1.212355 0.673594 1.4388121 0.105630375
0.520251 2.3804724 0.25765395 0.046510838 0.03735893 0.3979559 0.62912613 1.5700672
0.8862997 0.23474626 0.7323276 0.01965144 0.60995525 0.8037169 0.28410208 0.35621583
0.4782238 0.32195055 0.033659976 2.3349257 0.69930303 0.25449342 0.502226 0.0039341785
0.054168973 0.31568098 0.03334662 0.22771044 0.65453583 1.2194664 0.06931468 0.014783329
0.18800394 0.016301211 0.29611546 0.25897515 0.45828918 0.689711 0.119217165 0.09710106
1.248232 0.021320717 0.31329235 2.736557 0.7784513 0.01954426 0.6641633 0.3131745
1.7801584 0.1615376 0.038163364 0.16567564 0.22992717 0.15646926 0.31607723 0.2901279
0.22722578 0.57532346 0.05748847 0.31443238 2.5771387 0.049182516 0.5200244 0.31403616
0.5274963 0.27008718 0.058583636 0.5629659 0.1888969 0.10989687 0.022191731 0.045970358
0.48024327 0.41361433 0.019516205 0.71842957 0.4135696 0.34720355 0.030356145 0.36818406
1.0931556 0.7790216 0.7084438 0.678574 0.0727694 0.31847367 0.8108114 0.47180986
0.45168954 0.82376313 0.27457187 0.79373264 0.022835178 0.087888636 0.08801614 0.96815735

bn1.running_var f4 [128]
00000000: 2d14 7b3d 9e9a d63c fe87 3b3c 0af4 6e40
00000010: 5bbb c23d 6ab3 bd3f 4add 253e 94d5 f23e
00000020: 962f 253e 8d61 313f e5aa c53f ebaa ae3e
00000030: 2991 2b3f 2f37 c53c 299f 0741 a380 be3f
00000040: 526a 5e3f 3324 343e fafb ca3f d4c1 b93f
00000050: ec6d a53d 7be0 593f bb17 0040 25a0 e43f
00000060: d325 123c 8193 1b3d dd11 8f3c c38e 9b3e
00000070: 0680 d63f 8440 093f c67d c33e 90de ac3d
00000080: 05fc bf3e c51d 7540 f90c 4f3e 2f2e ff3c
00000090: 2b84 973c 915c 3a3f 5207 443f 79a4 e13f
000000a0: 768b 4f3f 8ed6 643e 738d 1240 8a33 cb3b
000000b0: ade3 b53f 832f e23f 631a 8f3e 6cad 253f
000000c0: 51f4 ef3e 0a7f af3e 0469 803c 2bb1 a440
000000d0: 5fa1 f53f 26e4 983e 75c8 d33e ca6a 713a
000000e0: a92c e13c d830 ad3e ecf1 5c3c 827f 353f
000000f0: 8b15 a63f d575 4c3f 9483 593d 77ae a93b
00000100: 7313 2d3e b639 be3b 4a95 bb3e 5ebd 623e
00000110: f579 583f f82d ea3f 0b09 8a3d e9a9 0c3d
00000120: a2eb 1040 2a05 713c 5284 853e 02b6 be40
00000130: a275 753f d4ce f53b 42fe f23f b2fc 113f
00000140: 8bce 3240 d4ea 423e df11 783c 59a9 073e
00000150: c486 ce3d 220f ec3d 9ed6 043f 165d d33e
00000160: 3e2c f43d 8322 e73e e1e7 103d 0df2 3c3e
00000170: f524 7140 febb e63c ea58 ee3f a98a f53e
00000180: 5046 bc3e 176e 403e 1034 283d 806e 883e
00000190: 11b9 4f3e 70eb f83d 6f90 ca3b 804c 433c
000001a0: 3dae 943f ea67 193f 30c0 ad3b 3b86 8f3f
000001b0: c8e6 293f 42a5 933e 0a3c 203d 0a98 223f
000001c0: e52c 763f b175 2940 1d70 8a3f 28ec db3f
000001d0: 353c ac3c 2cac 1c3f fa62 1940 7406 743f
000001e0: ced8 473f 77db 6340 718e 533e e921 1d40
000001f0: bc89 563c dd7e 9b3d 771b 143d 991d 0d40
0.061298538 0.026196774 0.011445997 3.733645 0.095083915 1.4820378 0.16197696 0.47428572
0.16131434 0.69289476 1.5442778 0.34114775 0.6701837 0.024074165 8.476357 1.4883007
0.8688098 0.17591934 1.5858147 1.4512277 0.080776066 0.85108155 2.0014484 1.7861372
0.008920151 0.037982468 0.017464573 0.30382356 1.675782 0.5361407 0.38181895 0.08440888
0.37496963 3.829942 0.20219792 0.031149952 0.01849564 0.72797495 0.7657367 1.7628318
0.81072176 0.22347471 2.2898834 0.0062012123 1.4210106 1.767075 0.2794982 0.64717746
0.46866086 0.3427661 0.015675075 5.146627 1.9189872 0.29861563 0.41363874 0.0009209333
0.027487116 0.33826327 0.013485413 0.70897686 1.2975324 0.798673 0.053104 0.0051782685
0.1690195 0.0058052195 0.36637336 0.2214255 0.8456109 1.8295279 0.06740006 0.034341726
2.264382 0.014710704 0.26077515 5.9597178 0.9588262 0.0075014625 1.8983843 0.5702621
2.7938564 0.19034892 0.01514098 0.13248195 0.10084298 0.11526324 0.5188998 0.41281956
0.11922501 0.45143518 0.035377387 0.1845171 3.7678807 0.028165814 1.8620884 0.47957352
0.36772394 0.18791996 0.041065276 0.26646805 0.20285441 0.12154281 0.0061817686 0.0119200945
1.1615673 0.59924185 0.0053024516 1.1212839 0.6636777 0.2883702 0.039119758 0.63513243
0.96162254 2.6478083 1.0815464 1.7181444 0.021024803 0.61200213 2.396666 0.95322347
0.7806519 3.56027 0.20659806 2.4551947 0.013094362 0.075925566 0.036159005 2.2049315
