checkpoint_critic_128_256.pth (torch_old, 165786 bytes, 9 tensors)

fcs1.weight f4 [128, 48]
0	0x3d5c476a	0.053779043
1	0x3d3a42bd	0.045473803
2	0x3dbd309e	0.092377886
3	0x3d4ee525	0.050511498
4	0xbd6ae024	-0.057342663
5	0xbd2d5a3e	-0.04232239
6	0xbda8f2fe	-0.08249472
7	0x3d8c983b	0.06864973
8	0x3d86fc4a	0.06591089
9	0xbd098100	-0.03357029
10	0xbd6d2581	-0.057897095
11	0xbdae7b96	-0.08519666
12	0xbd11c884	-0.035591617
13	0x3db60b53	0.08888879
14	0xbd091280	-0.03346491
15	0xbdd731c7	-0.10507541
16	0xbcd4404d	-0.025909567
17	0xbd8c0462	-0.068367735
18	0xbc4461a4	-0.01198617
19	0xbc1c6128	-0.009544648
20	0x3cc488c2	0.023990992
21	0x3dc416a1	0.095746286
22	0xbc6a7414	-0.014309902
23	0x3c540295	0.012940069
24	0x3d4e3db9	0.050351832
25	0x3dfbcf29	0.12295372
26	0xbc71f710	-0.014768377
27	0x3d824e9c	0.0636265
28	0xbd472c24	-0.04862608
29	0x3d8649f9	0.06557078
30	0xbdd6f95b	-0.104967795
31	0xbc9f5533	-0.019449806
32	0xbb0d9b04	-0.002160729
33	0x3e40d79f	0.18832253
34	0xbdb6eeff	-0.08932304
35	0x3e82eb6a	0.25570232
36	0x3dd1f7b1	0.102523215
37	0xbd9778ac	-0.07396063
38	0xbdd4d4a5	-0.10392121
39	0x3dcad68e	0.09904204
40	0xbca44b91	-0.020055564
41	0x3e11014b	0.1416065
42	0x3d665273	0.056230973
43	0x3dabbebf	0.08385991
44	0xbd1ab19d	-0.03776704
45	0x3df376c7	0.11887889
46	0x3d336a2a	0.043802418
47	0x3d70e2ac	0.05880992
48	0xbc59fff7	-0.013305656
49	0x3e29aad9	0.1656908
50	0x3cff624e	0.031174805
51	0x3d1fb002	0.038986214
52	0xbdf12448	-0.11774498
53	0xbe0d517a	-0.13800612
54	0xba210b55	-0.0006143351
55	0x3bac0155	0.005249182
56	0x3d17514b	0.03694276
57	0x3df1ab52	0.11800255
58	0x3cf0e3fb	0.029405585
59	0x3e066eb5	0.13128169
60	0xbc6d5a77	-0.0144869005
61	0xbe615daa	-0.22008386
62	0xbcbf8ee6	-0.023383569
63	0x3d928094	0.071534306
64	0x3deb49d9	0.11488695
65	0x3e364daf	0.17803071
66	0xbad7b678	-0.0016457578
67	0xbe01636c	-0.12635583
68	0xbe052cf4	-0.1300543
69	0xbe4e9d2f	-0.20177148
70	0xbd0c7121	-0.034287576
71	0xbdd5d028	-0.10440093
72	0x3d3c5fda	0.04598985
73	0x3bca7a5f	0.0061791386
74	0x3d06989c	0.032860383
75	0x3c578c8f	0.01315607
76	0x3db0c51a	0.08631344
77	0xbdffbe7d	-0.12487505
78	0x3c0159f1	0.007894979
79	0x3caedea4	0.021346398
80	0x3c6f6f49	0.014613935
81	0xbd8a492f	-0.0675224
82	0xbc744795	-0.014909645
83	0x3db054b9	0.086099096
84	0xbc14d18e	-0.009083165
85	0xbe627580	-0.22115135
86	0xbd74c7cc	-0.059760854
87	0x3b1df09e	0.0024099718
88	0xbe023230	-0.12714458
89	0xbd1ec62b	-0.038763206
90	0xbcc1b9d5	-0.023648182
91	0xbd1fe19b	-0.039033514
92	0x3e1d2ebe	0.15349862
93	0xbdefe9e9	-0.11714537
94	0x3d511d56	0.051053368
95	0x3c1a7b4d	0.009428811
96	0xbdff7282	-0.124730125
97	0xbd6af2d8	-0.0573605
98	0x3c8b96dc	0.017039709
99	0xbc711da5	-0.01471654
100	0xbb161f4d	-0.002290684
101	0x3e4280a4	0.18994385
102	0x3d8db0da	0.069184974
103	0xbdf06cc1	-0.11739493
104	0xbdc08bdb	-0.09401675
105	0x3b48ab12	0.0030619544
106	0x3d36e9a5	0.044656415
107	0x3c813b5e	0.015775379
108	0x3c1ffafa	0.009764427
109	0xbdba4402	-0.09095003
110	0xbc9dfa8a	-0.019284505
111	0x3d931b75	0.071829714
112	0x3da03b03	0.078237556
113	0xbd8f23e8	-0.069892704
114	0xbd9ef906	-0.07762341
115	0xbe63b8a4	-0.22238404
116	0xbdf45371	-0.11929978
117	0xbdd091b1	-0.101840384
118	0xbb139e09	-0.0022524616
119	0xbe4a4198	-0.19751585
120	0x3c330792	0.010927098
121	0xbd9bc002	-0.07604982
122	0x3d2c74ce	0.04210358
123	0x3cfc002e	0.030761804
124	0xbda9cd30	-0.082910895
125	0x3e2877b0	0.16451907
126	0x3c579a9d	0.013159421
127	0x3d9bd342	0.076086536
128	0xbd1e56b4	-0.038656905
129	0xbd0e2110	-0.0346995
130	0xbd416ab5	-0.047220904
131	0x3d1c5a9c	0.03817235
132	0xbdb1b9ae	-0.08677994
133	0x3ab6ddec	0.0013951636
134	0x3c42bb53	0.011885482
135	0x3cda24a8	0.026628807
136	0x3d391746	0.04518821
137	0x3d2f8fe6	0.04286184
138	0x3c8b7f32	0.017028425
139	0xbdebb0bb	-0.11508318
140	0x3e071e1f	0.13195084
141	0xbc06f411	-0.008236901
142	0xbd91b2de	-0.07114194
143	0xbc34efff	-0.011043548
144	0x3c8e7953	0.017391836
145	0x3c8ff5a1	0.01757318
146	0x3d571c07	0.052516963
147	0xbcb8852b	-0.022524437
148	0x3c0164d5	0.007897575
149	0x3d3a4cb0	0.04548329
150	0x3bd1ae13	0.006398925
151	0xbb54b6b0	-0.0032457523
152	0x3dad1588	0.084513724
153	0x3dfd0f87	0.12356477
154	0x3d036f48	0.032088548
155	0x3ca0948e	0.019602086
156	0xbcac4745	-0.021030078
157	0xbd4e109c	-0.05030881
158	0xbd324e43	-0.043531667
159	0x3b851c73	0.0040622293
160	0xbe281678	-0.16414821
161	0x3b831638	0.0040004514
162	0xbd3f264c	-0.046667382
163	0x3b41aec2	0.0029553627
164	0x3e5aae8f	0.21355651
165	0xbe8177f0	-0.25286818
166	0x3b415567	0.0029500367
167	0xbc802779	-0.015643822
168	0x3da78c62	0.08181073
169	0x3d87a56a	0.06623347
170	0x3ce2586e	0.027630057
171	0xbb5293cc	-0.003213155
172	0x3d2f9f43	0.042876493
173	0x3d457e99	0.048216436
174	0xbcf79344	-0.030221589
175	0xbc959119	-0.018257665
176	0x3dbfc6f6	0.09364121
177	0x3d4bc1ab	0.049745243
178	0xbb30f09b	-0.002699888
179	0xbd163fa3	-0.036681782
180	0x3b3036bc	0.0026888093
181	0xbcf7a727	-0.030231072
182	0xbb59b604	-0.0033220062
183	0x3b078421	0.002067812
184	0x3cc6c29a	0.024262715
185	0x3e4658c8	0.19369805
186	0x3c9126fe	0.017718788
187	0x3d0f8eb3	0.035048198
188	0xbe601a9b	-0.21885149
189	0xbe3a544f	-0.18196224
190	0xbcbab3e6	-0.02279086
191	0x3cd4e3fe	0.025987621
192	0xbcd84845	-0.026401648
193	0xbd85b361	-0.065283544
194	0xbae1b9f3	-0.0017221555
195	0x3d610497	0.054936018
196	0x3e13f44c	0.1444866
197	0x3dbc0d10	0.09182179
198	0xbc1930e6	-0.009350037
199	0xbd1b208b	-0.037872832
200	0x3da33ac7	0.07970195
201	0xbc16f56a	-0.009213785
202	0xbc84bf74	-0.016204573
203	0xbd792af5	-0.060831983
204	0x3ca0c933	0.01962719
205	0xbc921dac	-0.017836414
206	0xbc8d05e4	-0.017214723
207	0xbc0a1e06	-0.00843001
208	0x3db3c8e2	0.0877855
209	0x3cd75e4d	0.026290083
210	0xbd92161b	-0.071331225
211	0xbc739b4c	-0.014868569
212	0x3d8ee587	0.069773726
213	0xbd1af825	-0.037834305
214	0x3cde8572	0.027163241
215	0xbcc6defc	-0.02427625
216	0x3d90e51d	0.0707495
217	0xbd8f638e	-0.070014104
218	0x3c2729b8	0.010202818
219	0xbd8b5068	-0.06802446
220	0xbe13db13	-0.14439039
221	0x3df6543e	0.12027787
222	0x3bc65064	0.006052064
223	0x3d1ae51f	0.037816163
224	0x3e097565	0.13423689
225	0xbd4282bf	-0.04748797
226	0xbcbdb532	-0.02315769
227	0x3c764a55	0.015032371
228	0xbdbcb6cb	-0.092145525
229	0xbc6e30af	-0.014537974
230	0x3d8339ff	0.06407546
231	0xbd23cfcc	-0.039993092
232	0x3e226b0b	0.15861146
233	0xbd2eb7ea	-0.042655863
234	0x38e6919d	0.00010994377
235	0xbd07fc0c	-0.033199355
236	0xbe37b26a	-0.17939153
237	0xbe33cf03	-0.17559437
238	0x3ca30447	0.0198995
239	0x3d3655ad	0.0445153
240	0x3e44502d	0.1917121
241	0xbd9a986b	-0.07548603
242	0x3ccc8c49	0.024969237
243	0xbd1162ee	-0.035494737
244	0xbde72535	-0.112863936
245	0xbe0ef467	-0.1396042
246	0xbcfe9acf	-0.031079678
247	0x3d8ba594	0.06818691
248	0x3dd44b01	0.10365868
249	0xbe606804	-0.21914679
250	0xbd20a49f	-0.039219495
251	0xbd3e8b66	-0.04651966
252	0xbe11007f	-0.14160345
253	0xbd5ca4e3	-0.053868186
254	0x3d2b19e5	0.04177274
255	0x3c94dfa0	0.018173039

fcs1.bias f4 [128]
0	0x3c5e7782	0.013578298
1	0xbd8dcd5b	-0.06923934
2	0xbd7e4c4f	-0.062084492
3	0xbc915f69	-0.01774569
4	0x3df77d5f	0.120844595
5	0x3e1bea75	0.15226157
6	0x3d405cf9	0.046963666
7	0xbd05a883	-0.03263141
8	0xbda9ed4c	-0.08297214
9	0x3deb84f3	0.114999674
10	0xbe6dc0c3	-0.23218064
11	0xbd4864b6	-0.04892417
12	0xbcb5e336	-0.02220307
13	0xbd36dc8a	-0.044643916
14	0xbe134a68	-0.14383852
15	0x3ddf8849	0.10914666
16	0x3e1db2b8	0.15400207
17	0xbe024284	-0.12720686
18	0xbdef3975	-0.11680881
19	0xbdad7097	-0.084687404
20	0x3d15d773	0.03658242
21	0xbd6a3291	-0.05717713
22	0xbe2a93c0	-0.16657925
23	0xbd479a91	-0.04873139
24	0x3e46c66b	0.19411628
25	0xbb38c38a	-0.0028192722
26	0x3e5e1309	0.21686949
27	0xbe1016cc	-0.14071196
28	0xbe7ebc3d	-0.24876495
29	0x3d672d85	0.056439895
30	0xbe09b058	-0.13446176
31	0xbe018467	-0.12648164
32	0xbe406bf7	-0.18791185
33	0xbc6873ff	-0.014187812
34	0xbd586a94	-0.052836016
35	0xbe2028f1	-0.15640618
36	0xbe0277cc	-0.12741011
37	0x3d971b03	0.07378199
38	0x3df7b33d	0.12094734
39	0xbe47eb48	-0.19523346
40	0xbf0aa63e	-0.54159915
41	0x3e28da80	0.16489601
42	0xbd884baa	-0.06655057
43	0x3a7a1547	0.0009539914
44	0xbb452333	-0.0030080795
45	0xbcbd9159	-0.023140596
46	0x3c328f4d	0.010898423
47	0x3cdb1ff2	0.026748631
48	0x3b537eb5	0.0032271568
49	0x3d26eea7	0.04075494
50	0x3d94be15	0.07262818
51	0x3e104020	0.14086962
52	0xbdbf25e6	-0.093334004
53	0xbe178a08	-0.14798748
54	0xbbd525dd	-0.006504758
55	0xbd49399b	-0.049127202
56	0x3d9d1086	0.07669167
57	0xbe1a49e7	-0.15067254
58	0xbe899c47	-0.26877043
59	0x3dc1d884	0.09465125
60	0xbe910a1f	-0.28328034
61	0x3d6f1469	0.058369074
62	0xbee32605	-0.44364944
63	0xbee963a4	-0.45583832
64	0xbc935d0b	-0.017988702
65	0xbdafb11b	-0.08578702
66	0xbe2018e2	-0.15634492
67	0x3e5eddbb	0.21764271
68	0xbe6662bb	-0.224986
69	0xbdba80df	-0.091066115
70	0xbc7bd499	-0.015370511
71	0xbd9827bb	-0.07429453
72	0xbdd088b2	-0.101823226
73	0xbd75ba89	-0.059992347
74	0xbe23ac3d	-0.15983672
75	0x3d97c1e3	0.07410028
76	0xbe744844	-0.23855692
77	0xbe191ee4	-0.1495319
78	0xbe91d74e	-0.28484577
79	0xbe04b70c	-0.12960452
80	0xbe9be0c9	-0.30444935
81	0x3c393c93	0.011305946
82	0x3d303b69	0.043025408
83	0xbd306fb1	-0.043075267
84	0xbd81369d	-0.06309245
85	0xbd42aa00	-0.047525406
86	0xbde118f4	-0.109910876
87	0x3d51e922	0.051247723
88	0x3ce573cb	0.028009316
89	0xbcb3a30b	-0.02192833
90	0x3da93a14	0.08263031
91	0xbba485f9	-0.0050208536
92	0xbe8d45a7	-0.27592203
93	0xbe1035df	-0.1408305
94	0x3d91bd59	0.07116193
95	0xbdc2de55	-0.09515063
96	0xbde03ce2	-0.109491125
97	0xbe0feec5	-0.14055927
98	0x3b36b9df	0.0027881784
99	0x3da69c2a	0.08135255
100	0x3de0cff9	0.10977168
101	0xbe36ddf8	-0.17858112
102	0xbe4a4c94	-0.19755775
103	0x3c942471	0.018083783
104	0x3c40c833	0.011766481
105	0x3d9ff107	0.07809644
106	0x3d16ecbe	0.03684687
107	0x3daf9401	0.085731514
108	0xbbe3ea14	-0.0069553945
109	0xbe0fd443	-0.14045815
110	0xbea35c34	-0.31906283
111	0xbcd82aa2	-0.026387516
112	0x3d49fbd7	0.04931244
113	0xbe1ee74c	-0.1551792
114	0xbdf5db83	-0.12004759
115	0x3d012b26	0.03153529
116	0xbc75c325	-0.015000139
117	0xbdd6dbc7	-0.10491138
118	0xbd861b77	-0.06548207
119	0xbd09ea2a	-0.033670582
120	0xbe168e24	-0.1470266
121	0x3c0a1516	0.008427879
122	0xbca4edb6	-0.02013288
123	0xbd1d9a65	-0.03847732
124	0xbc8fd58f	-0.017557887
125	0xbbc7fa73	-0.006102854
126	0x3e3393c7	0.17536841
127	0xbe962d56	-0.29331464

fc2.weight f4 [256, 132]
0	0xbd3a289c	-0.045448884
1	0xbe98e901	-0.29865268
2	0xbd488b16	-0.048960768
3	0xbd0bd7a1	-0.034141187
4	0xbe7d7431	-0.24751355
5	0xbd5dda25	-0.054163117
6	0xbb96bcb7	-0.0046001333
7	0x3d111038	0.035415858
8	0xbca08b2f	-0.019597618
9	0xbcf66c36	-0.030080896
10	0xbd3dbc3e	-0.0463221
11	0x3d33755d	0.0438131
12	0xbd48a81c	-0.048988447
13	0x3d38a257	0.045076694
14	0xbd67ab4c	-0.056559846
15	0xbc8d4c71	-0.017248364
16	0xbe4aa71a	-0.19790307
17	0x3cdae0f4	0.026718594
18	0xbd96394e	-0.07335149
19	0x3d84fbaf	0.06493317
20	0x3b1b675a	0.0023712725
21	0x3c6d0172	0.014465677
22	0xbd6d6ad3	-0.057963204
23	0x3df9eecb	0.12203749
24	0x3d31e45c	0.04343067
25	0x3db728c1	0.0894332
26	0x3c275ef6	0.010215512
27	0x3c8774c9	0.01653518
28	0x3da509d7	0.080585174
29	0x3d087689	0.03331617
30	0x3c90c893	0.017673766
31	0xbda7e6a3	-0.08198287
32	0x3d23ed11	0.040021006
33	0xbd4c034c	-0.04980783
34	0xbdb4e15f	-0.088320486
35	0xbd44f08f	-0.048080977
36	0xbd15a46c	-0.036533758
37	0x3c7e26be	0.015512167
38	0xbcd47de0	-0.025938928
39	0xbc70c29c	-0.014694836
40	0xbcebfa24	-0.0288058
41	0xbd4b497d	-0.04963063
42	0xbd2fe4e9	-0.042942915
43	0x3d0ff42f	0.03514498
44	0x3d1794c5	0.037007112
45	0x3ca1bc60	0.019743145
46	0x3daa78c7	0.08323818
47	0x3de4f0a3	0.1117871
48	0xbd6b62fd	-0.05746745
49	0x3d1b69f1	0.03794283
50	0x3d673e86	0.05645611
51	0x3c503b78	0.012709491
52	0xbd417047	-0.047226217
53	0xbc8fcb88	-0.017553106
54	0x3d8cb114	0.068697125
55	0xbda7c0b1	-0.0819105
56	0x3d5359fa	0.05159948
57	0x3d903a53	0.070423745
58	0x3d2e3a4f	0.042536076
59	0x3a1689b4	0.0005742565
60	0x3d60ceeb	0.054884832
61	0xbd0354c9	-0.03206328
62	0x3d3cdd9e	0.046109788
63	0xbc7355e8	-0.014852025
64	0xbcab0418	-0.020875975
65	0xbc8ce560	-0.017199218
66	0xbca32065	-0.019912908
67	0x3d757e28	0.059934765
68	0x3cd68ac7	0.026189221
69	0x3d15c8e6	0.036568545
70	0x3ad547d8	0.0016272021
71	0x3c4f7b3e	0.012663661
72	0xbbe806b0	-0.0070808753
73	0x3d8e7477	0.06955808
74	0xbcba77d5	-0.022762218
75	0x3c07abee	0.008280737
76	0x3ce68609	0.028140085
77	0xbdf3dd52	-0.11907448
78	0x3d559b86	0.05215027
79	0xbbf8e19f	-0.0075952555
80	0xbd5142e5	-0.051089186
81	0xbd8d8867	-0.06910782
82	0x3cdbf9dc	0.02685254
83	0xbda9b0c7	-0.08285671
84	0x3ca42538	0.020037279
85	0xba2e1de4	-0.00066420273
86	0x3d4be7d6	0.049781643
87	0xbd6ac9a0	-0.05732119
88	0x3c3b97c1	0.011449755
89	0x3bc90408	0.0061345138
90	0x3c5511e0	0.01300475
91	0xbd9fa33e	-0.07794808
92	0xbb8e1184	-0.004335584
93	0x3d0ddf7d	0.034636963
94	0x3ab29e57	0.0013627511
95	0xbd4c1438	-0.04982397
96	0x3df03836	0.117294714
97	0x3d186b85	0.037211914
98	0xbd8c82d7	-0.06860893
99	0x3d53f94d	0.051751424
100	0xbc6319c1	-0.013861121
101	0x3d44f2fd	0.048083294
102	0x3a907940	0.0011022463
103	0x3bd2c7bb	0.006432501
104	0xbd013e94	-0.03155382
105	0xbce47826	-0.027889322
106	0x3dd6870e	0.104749784
107	0xbd57ad99	-0.05265579
108	0xbd00efaa	-0.03147856
109	0xbe15a827	-0.14614926
110	0x3cee78a7	0.029110266
111	0x3d126add	0.035746444
112	0x3be520cc	0.006992435
113	0x3d43d027	0.04780593
114	0x3cd84fd2	0.026405249
115	0xbcbab1d2	-0.02278987
116	0x3d1bd5e0	0.038045764
117	0xbd3df5a2	-0.04637683
118	0x3d4c5f9b	0.049895864
119	0xbbc399d2	-0.0059692645
120	0x3bc56df3	0.00602507
121	0x3ceae1d9	0.028672146
122	0x3d81ddb0	0.06341112
123	0xbc1b27d3	-0.009469944
124	0x3da1caba	0.07899995
125	0x3d1e77c4	0.038688436
126	0xbc9079cf	-0.017636208
127	0xbbb7eca3	-0.005612926
128	0x3dab64c7	0.08368831
129	0x3d5e57bf	0.0542829
130	0xbb66bfb5	-0.003520948
131	0xbc9db843	-0.019252902
132	0x3d5db03b	0.054123145
133	0x3ce820b4	0.028335907
134	0xbd66ff97	-0.056396093
135	0xbc986c25	-0.018606255
136	0xbd883637	-0.06650966
137	0x3d8b82ab	0.06812032
138	0xbdd34818	-0.10316485
139	0xbcdcab69	-0.026937203
140	0x3ac6d8ed	0.001517085
141	0x3995a460	0.00028541964
142	0xbd1ad824	-0.037803784
143	0xbb4fb21a	-0.003169185
144	0x3c0eee7d	0.008723852
145	0x3caa6d08	0.020803943
146	0xbd45f250	-0.04832679
147	0x3c4cc957	0.012499175
148	0xbdb1e9dc	-0.08687183
149	0x3bedeb82	0.0072607407
150	0x3d9a1851	0.07524169
151	0xbc2930bf	-0.010326563
152	0xbbb5d740	-0.0055493414
153	0xbe067e43	-0.13134103
154	0x3c75e548	0.015008278
155	0x3cd25aa3	0.025677985
156	0xbca5f249	-0.020257132
157	0xbd6e4005	-0.058166523
158	0x3d4abc6f	0.04949611
159	0x3d5355ea	0.051595606
160	0x3c831b82	0.016004328
161	0x3d970998	0.07374877
162	0xbc7dfad1	-0.015501694
163	0xbe026831	-0.12735058
164	0x3ce1acf8	0.027548298
165	0xbd810ed6	-0.06301658
166	0xbdad31c3	-0.08456757
167	0x3d474625	0.04865088
168	0x3da0e760	0.07856631
169	0x3d835fa7	0.064147286
170	0x3c67412a	0.014114657
171	0xbc9a8772	-0.018863413
172	0xbdec279a	-0.11530991
173	0x3dada3f3	0.084785365
174	0xbc30b314	-0.010784883
175	0xbc4ea665	-0.012612914
176	0xbe310307	-0.17286311
177	0xbdaf69f4	-0.08565131
178	0x3b324876	0.0027203835
179	0x3dec43ac	0.11536345
180	0xbbe866c9	-0.007092331
181	0xbd341887	-0.043968704
182	0xbda45465	-0.080239095
183	0xbdde6a05	-0.10860065
184	0x3d4d7d92	0.05016858
185	0x3b1fe8ea	0.0024400302
186	0xbd443d90	-0.047910273
187	0xbdd1d45c	-0.102455825
188	0xbd405157	-0.04695257
189	0x3d35ad2f	0.044354614
190	0x3da810d3	0.08206334
191	0xbdb9cbb6	-0.09072058
192	0x3d63f740	0.055655718
193	0x3d05e92a	0.032693066
194	0xbd6b1043	-0.057388555
195	0xbd728eee	-0.05921834
196	0xbe1f8c63	-0.15580897
197	0x3b13191b	0.0022445384
198	0xbb2bf0d2	-0.002623607
199	0x3cc523c0	0.024064898
200	0x3c983aa1	0.018582644
201	0x3d41772e	0.0472328
202	0xbde5e8f3	-0.11226072
203	0xba89affa	-0.0010504716
204	0x3ced8b7c	0.028997175
205	0xbd46959e	-0.04848253
206	0x3ca3f24b	0.020012995
207	0xbc5dcf47	-0.013538188
208	0x3d1f64ad	0.03891437
209	0x3d3b86f8	0.045783013
210	0x3d8b98dd	0.06816266
211	0xbd907e69	-0.07055361
212	0x3d9d49a8	0.076800644
213	0xbd2c6b08	-0.04209426
214	0xbe085c18	-0.13316381
215	0xbd2a2468	-0.041538626
216	0x3cc576c3	0.024104482
217	0xbd3e0889	-0.04639486
218	0xbc884a47	-0.01663698
219	0xbe596539	-0.2123002
220	0xbc2e2daf	-0.010631009
221	0xbbb5e0bd	-0.0055504725
222	0x3d9b0466	0.07569198
223	0x3d7476a6	0.059683464
224	0xbca3db37	-0.02000199
225	0x3cf2dfb6	0.02964769
226	0xbccf6184	-0.025315054
227	0xbc86b3ca	-0.016443152
228	0x3a9d8205	0.0012016898
229	0x3cce90d1	0.025215538
230	0x3b285a1f	0.0025688482
231	0xbdac3add	-0.08409665
232	0xbd07cb2a	-0.033152737
233	0x3a65f971	0.00087728264
234	0x3d532674	0.051550344
235	0x3ca77a95	0.020444194
236	0x3da3f646	0.08005957
237	0xbcba39f9	-0.022732722
238	0x3d44755a	0.047963478
239	0x3d6c16aa	0.0576388
240	0xbe0dc147	-0.1384326
241	0x3e0b60fd	0.13611217
242	0xbdb3081a	-0.087417796
243	0x3b5dd572	0.0033849147
244	0x3b971eaf	0.004611812
245	0x3dcfd7e6	0.10148601
246	0x3cc604fb	0.024172297
247	0x38acc3ec	8.2380924e-05
248	0xbd1df572	-0.038564153
249	0x3dc71c2f	0.097221725
250	0x3db42dca	0.08797796
251	0xbde9de70	-0.1141938
252	0xba3df1bd	-0.00072457996
253	0xbd74ec18	-0.05979547
254	0x3e10f402	0.14155582
255	0xbd5d68ab	-0.054054897

fc2.bias f4 [256]
0	0xbd87d8b3	-0.06633129
1	0xbdd27d2d	-0.10277782
2	0xbda545c0	-0.080699444
3	0xbd0715f4	-0.03297992
4	0xbd51e4c9	-0.051243577
5	0xbce2e433	-0.027696704
6	0x3d9984e1	0.07496048
7	0x3c8ea279	0.017411457
8	0x3dad1478	0.0845117
9	0xbe0ea4ab	-0.13930003
10	0xbda58b0e	-0.08083163
11	0x3c662c3c	0.014048632
12	0xbd2a0f29	-0.041518364
13	0x3ce592cb	0.028024098
14	0xbcbffd80	-0.023436308
15	0xbc99760b	-0.018733045
16	0xbe138e8e	-0.14409849
17	0x3ca57d81	0.020201446
18	0xbdde0425	-0.10840634
19	0x3d9c6a13	0.076374196
20	0xbdb5afc7	-0.088714175
21	0xbcac7be1	-0.021055164
22	0xbdcf1694	-0.10111728
23	0xbdf76722	-0.12080218
24	0xbe11d1c9	-0.14240183
25	0xbe1e01f4	-0.15430433
26	0xbd6f6be5	-0.058452506
27	0xbd6e056b	-0.058110636
28	0xbde94ea0	-0.1139195
29	0xbd88c85f	-0.06678843
30	0xbdeb10fe	-0.114778504
31	0xbe16c0a5	-0.14721926
32	0xbe0cf41c	-0.13764995
33	0x3d067eae	0.032835655
34	0xbdbf084e	-0.09327756
35	0xbd84759d	-0.064677455
36	0xbdb6ee79	-0.08932204
37	0xbe12d63c	-0.14339536
38	0xbd3dc00e	-0.046325736
39	0x3c6c6869	0.01442919
40	0xbdd3891a	-0.103288844
41	0xbe13cc7c	-0.14433473
42	0xbd4a8fe5	-0.049453635
43	0xbe4ef4d5	-0.20210584
44	0x3d784177	0.060609307
45	0x3b634d5a	0.0034683556
46	0xbc6443d6	-0.013932189
47	0xbc189d98	-0.009314917
48	0xbdf8d2ab	-0.12149557
49	0xbd6ecb73	-0.058299493
50	0xbd6e3da7	-0.058164265
51	0xbe127fc6	-0.14306554
52	0xbd55add1	-0.052167717
53	0xbd6ee6b0	-0.05832547
54	0xbd9741d7	-0.07385605
55	0xbc440419	-0.011963868
56	0xbd3c79c7	-0.046014573
57	0xbdaadd48	-0.08342987
58	0xbd874e4b	-0.0660673
59	0xbd613088	-0.054977924
60	0x3c40e7c0	0.0117740035
61	0xbd6bf434	-0.057605937
62	0x3ca28f7e	0.019843813
63	0xbe2625ce	-0.16225359
64	0x3d528271	0.05139393
65	0x3c8e87ac	0.017398678
66	0xbdc2891f	-0.0949881
67	0xbd6b9bf4	-0.057521775
68	0xbd89e59f	-0.0673325
69	0xbd966819	-0.07344074
70	0x3d0f9cd8	0.035061687
71	0xbd0bef5e	-0.034163825
72	0x3906449a	0.00012804792
73	0xbc1ec015	-0.009689351
74	0x3c2d1f55	0.010566552
75	0x3ddd305e	0.10800241
76	0x3d19f0db	0.037583213
77	0x3d375e65	0.044767756
78	0x3db6f7cf	0.089339845
79	0xbd9a0a07	-0.07521444
80	0xbe125ba2	-0.14292768
81	0xbe0e67e7	-0.13906823
82	0xbcc784ee	-0.024355378
83	0xbe140668	-0.14455569
84	0xbd354765	-0.04425754
85	0xbdd8ad7f	-0.10579967
86	0xbe38ae61	-0.1803527
87	0xbdb0f464	-0.08640364
88	0xbdacc1c2	-0.08435394
89	0x3dcaec2c	0.099083275
90	0xbe2c3368	-0.16816485
91	0xbda4b18e	-0.08041678
92	0xbba00883	-0.004883827
93	0xbbdd8245	-0.006759914
94	0xbdb9450e	-0.09046374
95	0xbe08961d	-0.13338514
96	0x3c86a8a4	0.016437836
97	0xbd7f654f	-0.062352475
98	0xbbbfa5c0	-0.0058486164
99	0xbd9e596b	-0.07731899
100	0xbd8254c2	-0.063638225
101	0xbe0b8088	-0.1362325
102	0xbd2bbf23	-0.04193033
103	0xbe154a28	-0.1457907
104	0x3e02c46f	0.12770246
105	0xbd807aec	-0.062734455
106	0xbdba46bf	-0.09095525
107	0xbde2305f	-0.11044382
108	0xbe3bf433	-0.18354873
109	0xbd0a9d27	-0.03384128
110	0x3bc42fe5	0.005987155
111	0xbdb60fb0	-0.08889711
112	0x3d304a01	0.043039326
113	0xbdabbc96	-0.08385579
114	0xbdb40d71	-0.08791626
115	0xbe07fa5d	-0.132791
116	0xbbb0a0ba	-0.005390254
117	0xbdee581d	-0.116379
118	0xbdb1b865	-0.086777486
119	0xbe2cb803	-0.1686707
120	0x3dbd4536	0.092417166
121	0xbdeac576	-0.11463444
122	0xbda8bd2c	-0.08239207
123	0xbdb3946d	-0.08768544
124	0xbd13bed4	-0.03607066
125	0xbd84b0c4	-0.06479028
126	0xbdc9d510	-0.098550916
127	0xbd44c2e4	-0.048037425
128	0xbce027cc	-0.027362727
129	0xbd9fa62b	-0.07795366
130	0xbe0ecbf6	-0.13944992
131	0xbdda8696	-0.106702015
132	0xbd8a590f	-0.06755268
133	0xbd99091e	-0.07472442
134	0xbe11d3fe	-0.14241025
135	0xbc2ceb44	-0.010554139
136	0xbc28e788	-0.010309108
137	0xbd7c1a1b	-0.061548334
138	0x3c084016	0.0083160605
139	0xbc9d007f	-0.019165276
140	0xbbd16160	-0.006389782
141	0xbc903dc9	-0.017607586
142	0x3d3e99ce	0.0465334
143	0xbd6c071c	-0.057623968
144	0xbdad292a	-0.08455117
145	0xbcd268e5	-0.025684783
146	0xbd86d8da	-0.0658433
147	0xbd465b50	-0.048426926
148	0xbddc9bd5	-0.1077191
149	0xbd040497	-0.03223094
150	0xbdf73b0c	-0.12071809
151	0xbdee82ce	-0.11646043
152	0xbd6b68bb	-0.057472926
153	0xbe0f439a	-0.13990632
154	0xbdae50be	-0.08511494
155	0xbd429680	-0.04750681
156	0xbe0fcf38	-0.14043891
157	0x3b9857e4	0.0046491493
158	0xbdf08cf3	-0.11745634
159	0x3ca74106	0.020416748
160	0xbdd5363e	-0.104107365
161	0xbd9cdf8a	-0.07659824
162	0xbd3cc21e	-0.046083562
163	0xbde7c599	-0.11316986
164	0xbd973564	-0.0738323
165	0xbdd00853	-0.10157838
166	0xbd485fe9	-0.048919592
167	0xbe1d39aa	-0.15354028
168	0x3b001d3f	0.0019548682
169	0xbdbe7872	-0.09300317
170	0xbc491b1c	-0.01227453
171	0xbe11624f	-0.14197658
172	0xbe28cfd1	-0.16485526
173	0x3dde79f1	0.10863102
174	0xbd100587	-0.03516152
175	0xbe088779	-0.13332929
176	0x3d709d41	0.05874372
177	0xbd873dea	-0.06603606
178	0xbc77d45c	-0.015126314
179	0x3d48efe8	0.049056917
180	0xbda6d410	-0.081459165
181	0xbcbeb30d	-0.023278737
182	0x3c40142e	0.011723561
183	0xbdf3b0b6	-0.11898939
184	0x3d6249f5	0.055246312
185	0x3cc59d08	0.02412273
186	0xbdaa147d	-0.08304689
187	0x3da88be2	0.082298055
188	0xbd034f65	-0.03205814
189	0xbe179e68	-0.14806521
190	0xbe00662c	-0.12538975
191	0xbdc40552	-0.09571327
192	0xbdc2a840	-0.095047474
193	0xbd110021	-0.035400514
194	0xbd9678ea	-0.07347281
195	0xbe49e514	-0.19716293
196	0xbda6f56c	-0.08152279
197	0xbe0d5311	-0.13801219
198	0xbe0ce90c	-0.13760775
199	0x3cb63655	0.022242704
200	0xbd8ec5c2	-0.06971313
201	0x3c3d39e5	0.011549448
202	0x3d3850fc	0.044999108
203	0xbe0318a9	-0.12802376
204	0xbd908d24	-0.070581704
205	0xbe10d642	-0.14144233
206	0x3d405835	0.04695912
207	0xbe27b049	-0.16375841
208	0xbd88b272	-0.06674661
209	0xbd9e1e80	-0.07720661
210	0xbdac8a4e	-0.08424817
211	0x3d0b7580	0.034047604
212	0x3cd861fc	0.02641391
213	0xbe1933aa	-0.14961115
214	0xbda9b2c7	-0.08286052
215	0x3cc1d9b4	0.02366338
216	0x3cf71702	0.030162338
217	0xbe0cfbe6	-0.13767967
218	0xbe253134	-0.16132051
219	0xbd891fa3	-0.06695487
220	0xbe14b62e	-0.14522621
221	0xbe1293b6	-0.1431416
222	0xbc27e030	-0.010246322
223	0x3d888080	0.066651344
224	0xbe168b5c	-0.14701599
225	0xbd4463cd	-0.04794674
226	0x3d9e70c3	0.07736351
227	0xbdd694f2	-0.10477628
228	0xbdca761d	-0.098858096
229	0x3cf0c693	0.029391563
230	0xbda184d6	-0.078866646
231	0x3baf349f	0.005346849
232	0xbca78024	-0.020446844
233	0xbcfca4b1	-0.03084025
234	0xbe24a697	-0.16079174
235	0xbcf07baa	-0.029355843
236	0x3dfa1a89	0.122120924
237	0xbdeb26c8	-0.11482006
238	0x3c8ffa94	0.01757554
239	0xbe1e3d50	-0.15453076
240	0xbc779a31	-0.015112446
241	0xbd43d06d	-0.047806192
242	0xbdc00eaa	-0.09377797
243	0xbdba453d	-0.090952374
244	0xbdd2f8c2	-0.10301353
245	0xbdecd794	-0.11564556
246	0xbe07acfd	-0.13249584
247	0xbd87b88c	-0.066269964
248	0xbe15353d	-0.1457109
249	0xbd7dbbb6	-0.061946593
250	0xbd6a8926	-0.0572597
251	0xbd83feaa	-0.06445058
252	0xbd9f533c	-0.077795476
253	0xbdcc10a5	-0.09964112
254	0xbcffb82c	-0.03121575
255	0xbe040a85	-0.12894638

fc3.weight f4 [1, 256]
0	0x3d5d3b6c	0.054011747
1	0x3d82ee33	0.06393089
2	0x3dfa3be3	0.12218454
3	0xbd6b5b8f	-0.057460364
4	0x3dee6105	0.11639599
5	0x3daa8a57	0.083271675
6	0x3d5450fc	0.051835045
7	0x3d1ca859	0.038246486
8	0x3d4480fc	0.04797457
9	0xbe08fb7d	-0.13377185
10	0x3d7bcda6	0.06147542
11	0x3d0f2254	0.034944847
12	0xbd85b425	-0.065285005
13	0x3d6a4cdc	0.057202205
14	0x3d637627	0.0555326
15	0xbd8d569f	-0.06901287
16	0x3e58f7cc	0.21188277
17	0x3d27d62d	0.04097574
18	0x3d57ec63	0.05271567
19	0x3d32e26d	0.043672968
20	0xbd287a52	-0.04113228
21	0x3d419f92	0.04727132
22	0xbd91cac1	-0.0711875
23	0x3e469391	0.1939223
24	0xbe06bc7c	-0.13157839
25	0xbd83e08a	-0.06439312
26	0x3d86f48a	0.06589611
27	0xbdeebb65	-0.116568364
28	0xbd97838e	-0.07398139
29	0x3d77099d	0.060311902
30	0xbd50ea7c	-0.05100487
31	0xbdabe155	-0.08392588
32	0xbe453083	-0.19256787
33	0x3d453bd3	0.048152756
34	0xbdc44f40	-0.09585428
35	0xbd8467b7	-0.064650945
36	0x3e72dffa	0.23718253
37	0x3d9c903f	0.076447
38	0xbdd29c29	-0.102836914
39	0x3d1f4888	0.03888753
40	0xbd8112be	-0.06302403
41	0x3d9e06d4	0.07716146
42	0xbdb89e88	-0.090146124
43	0xbe800a53	-0.25007877
44	0x3d41d22d	0.04731958
45	0x3d64dc8c	0.055874392
46	0xbdd03efa	-0.10168262
47	0x3de60de5	0.11233119
48	0xbda82619	-0.082103916
49	0x3de24cf6	0.110498354
50	0xbdf7fc9c	-0.12108728
51	0xbda3fe60	-0.080075026
52	0x3d56b170	0.05241531
53	0x3d9f8089	0.07788188
54	0xbd391c5c	-0.04519306
55	0x3d27c122	0.04095567
56	0xbd4391e9	-0.047746573
57	0xbdd876c3	-0.10569527
58	0xbdcee0ea	-0.10101493
59	0x3d6a237c	0.057162747
60	0x3d24903c	0.040176615
61	0x3d4aad21	0.049481515
62	0x3d23a46d	0.03995173
63	0xbddc9dcb	-0.10772284
64	0x3d5f383b	0.054496985
65	0x3d234579	0.039861176
66	0xbd8d7d55	-0.06908671
67	0x3d8cd3ae	0.06876312
68	0xbdfee9ab	-0.124469124
69	0xbdb4c8f8	-0.08827394
70	0x3d19caf5	0.03754707
71	0xbd333e63	-0.04376067
72	0xbd4fdd2d	-0.05074804
73	0x3d93780b	0.07200631
74	0x3d89a7c7	0.06721454
75	0x3cfafe15	0.030638734
76	0x3d1cb005	0.038253803
77	0x3d19e79c	0.037574396
78	0x3d37fb3b	0.044917326
79	0xbd888a54	-0.06667009
80	0xbda3230c	-0.07965669
81	0x3de0ee54	0.109829575
82	0xbd804944	-0.06263974
83	0xbdb0e486	-0.086373374
84	0xbd4aaeec	-0.049483225
85	0xbd718422	-0.058963902
86	0x3d69e9ff	0.05710792
87	0xbd5c2a4a	-0.053751267
88	0x3d5db8fb	0.05413149
89	0x3d7513c5	0.059833307
90	0xbdcf5071	-0.10122765
91	0xbe2f0a6d	-0.17093821
92	0xbdb4d9ff	-0.08830642
93	0x3d2b8786	0.041877292
94	0x3d842244	0.06451848
95	0xbd863c63	-0.065544866
96	0x3cf23bd9	0.029569553
97	0x3dac801c	0.084228724
98	0x3d0eed0f	0.034894045
99	0xbdc75d3b	-0.09734579
100	0xbe675646	-0.22591504
101	0xbd6c4cb1	-0.057690326
102	0x3e0b2013	0.13586454
103	0xbe53dc11	-0.20689417
104	0x3d263b63	0.04058398
105	0xbdbe5e61	-0.09295345
106	0xbd60b17c	-0.054856762
107	0xbda801f9	-0.08203501
108	0xbe92499c	-0.28571784
109	0x3d9a5735	0.07536165
110	0x3d5248c3	0.051338922
111	0x3d5c37ad	0.053764034
112	0x3d4097b4	0.047019675
113	0xbdbb3a71	-0.09142006
114	0x3d59bdf5	0.053159673
115	0xbdc0acd9	-0.09407968
116	0x3d2f767a	0.042837597
117	0xbdb01563	-0.08597829
118	0xbd2533f4	-0.04033275
119	0x3d01feb8	0.03173706
120	0x3d10cd08	0.035351783
121	0x3d33e2bc	0.043917403
122	0x3db3c0bf	0.08776998
123	0x3e20497b	0.1565303
124	0x3d68b577	0.056813683
125	0xbd9bafb6	-0.076018736
126	0xbd90bac6	-0.07066874
127	0xbd5996bc	-0.053122267
128	0xbd6e2dac	-0.058149025
129	0xbdc83cdb	-0.09777232
130	0xbdb291d8	-0.08719224
131	0xbd82a89b	-0.06379815
132	0xbda1f722	-0.07908465
133	0xbd9808de	-0.07423566
134	0xbdbd5015	-0.0924379
135	0x3d9d0caa	0.07668431
136	0xbdb36cef	-0.08761012
137	0x3d8325e4	0.064037114
138	0x3d98f5b8	0.07468742
139	0x3de1502c	0.1100162
140	0x3d01e901	0.03171635
141	0x3d4b883a	0.049690463
142	0x3d1c2a01	0.038125996
143	0x3d4afafa	0.049555756
144	0x3d8b1d89	0.06792743
145	0xbd938a2a	-0.07204087
146	0x3d7fbe8b	0.062437575
147	0xbdb36b1b	-0.08760663
148	0x3dac1759	0.08402891
149	0xbd6a04af	-0.057133373
150	0xbd598c69	-0.05311242
151	0x3dd45436	0.103676245
152	0x3da10fbc	0.07864329
153	0x3d4d6287	0.05014279
154	0x3d85be81	0.06530476
155	0x3db55f51	0.08856071
156	0xbd8e6fb5	-0.069549
157	0x3d31c574	0.043401197
158	0xbd928691	-0.07154573
159	0x3cfb79a0	0.030697644
160	0xbd9f70cc	-0.07785186
161	0xbda289f6	-0.0793647
162	0xbe0d3e87	-0.13793384
163	0x3e6354f9	0.22200383
164	0xbe349c4a	-0.17637745
165	0xbd815dbc	-0.063167065
166	0xbe663da5	-0.22484453
167	0xbe5624e0	-0.20912504
168	0x3d748390	0.05969578
169	0x3d72a9f9	0.05924413
170	0x3db61b27	0.08891898
171	0x3d935bdc	0.07195255
172	0xbdfd6409	-0.12372596
173	0x3d4746a7	0.048651364
174	0x3dc1f843	0.0947118
175	0x3d87b783	0.06626799
176	0x3d8b2527	0.067941956
177	0x3db2212b	0.086977325
178	0x3d673a49	0.05645207
179	0x3d3a0efe	0.045424454
180	0xbdd61f46	-0.10455184
181	0xbd1bc9a8	-0.03803411
182	0x3d28693e	0.04111599
183	0xbdacf23e	-0.084446415
184	0x3d0b212e	0.03396719
185	0x3d5763b1	0.052585308
186	0xbd6a7553	-0.057240795
187	0x3d0a4125	0.033753533
188	0xbd8876e4	-0.066633016
189	0xbe2b1835	-0.16708453
190	0xbe4b7032	-0.19867018
191	0x3e66ae04	0.22527319
192	0x3dbbed88	0.09176165
193	0x3d875bb3	0.06609287
194	0x3db71eb7	0.08941405
195	0xbe03e056	-0.12878546
196	0xbd97fb39	-0.07420964
197	0x3e28236f	0.16419767
198	0x3e096b1d	0.13419767
199	0x3d215266	0.039385222
200	0xbd8fae47	-0.07015663
201	0x3d1ffea7	0.039061215
202	0x3d30f420	0.043201566
203	0xbdcbec83	-0.099572204
204	0xbd925675	-0.071453966
205	0x3e901b0a	0.2814563
206	0x3d569359	0.052386615
207	0x3e130bda	0.1435999
208	0x3d87ddbe	0.06634091
209	0x3dcb3a57	0.09923237
210	0x3d732868	0.059364706
211	0x3d524d21	0.051343087
212	0x3d717234	0.058946803
213	0xbd884fa0	-0.06655812
214	0xbd549221	-0.051897172
215	0xbd8fdf58	-0.07025021
216	0x3d813f0c	0.06310853
217	0xbdfacbd4	-0.122459084
218	0xbda4e365	-0.080511846
219	0x3de596b0	0.11210382
220	0x3e212fac	0.15740842
221	0x3d812134	0.06305161
222	0x3d87bdfc	0.066280335
223	0x3cf2d5f7	0.029643042
224	0xbdbd3c40	-0.092400074
225	0xbd92726e	-0.07150732
226	0x3cd7d3c8	0.026346102
227	0x3da0de2a	0.078548744
228	0x3da93282	0.08261587
229	0x3cf8caec	0.030370198
230	0xbdbaafed	-0.091155864
231	0x3d8003a3	0.06250694
232	0xbd362865	-0.044472117
233	0xbd95202a	-0.072815254
234	0xbe15bc6b	-0.14622657
235	0xbda6f18a	-0.08151539
236	0x3d1317f6	0.035911523
237	0xbd432b4c	-0.047648713
238	0x3cf33bfe	0.029691692
239	0xbd85d383	-0.06534483
240	0x3d1b89a1	0.03797305
241	0x3dbc2843	0.09187367
242	0xbdb8d062	-0.09024121
243	0xbdc3b59f	-0.09556126
244	0xbd369b4f	-0.044581708
245	0xbda1f6fa	-0.07908435
246	0x3d884f88	0.066557944
247	0xbd92d643	-0.071697734
248	0xbd938958	-0.072039306
249	0x3d05094d	0.032479573
250	0xbdafd2b1	-0.08585108
251	0xbd8058af	-0.06266915
252	0x3e0905f7	0.13381182
253	0xbdf4ef3a	-0.11959691
254	0xbe0f1fdf	-0.13977002
255	0xbe35a8e8	-0.17740214

bn1.weight f4 [128]
0	0x3e8f35b1	0.2797065
1	0x3f00bfdf	0.5029277
2	0x3e8040c0	0.250494
3	0x3f64100f	0.89087003
4	0x3f165ae5	0.58732444
5	0x3eeb7230	0.45985556
6	0x3e8d32ee	0.2757792
7	0x3ee3b799	0.4447601
8	0x3edfa37b	0.43679413
9	0x3e05b8f6	0.13058838
10	0x3f00b2f7	0.5027308
11	0x3ee7c569	0.452678
12	0x3ed083da	0.40725595
13	0x3f53cf41	0.8273812
14	0x3f1179fc	0.5682676
15	0x3f5b3d50	0.8564043
16	0x3f882eb6	1.0639255
17	0x3f24800f	0.642579
18	0x3f677746	0.9041637
19	0x3f1b3b5b	0.60637444
20	0x3f082bee	0.5319203
21	0x3f4e9cad	0.8070782
22	0x3eccd21f	0.4000406
23	0x3eaae067	0.3337433
24	0x3f4077b6	0.75182664
25	0x3e2fad57	0.17155968
26	0x3eec0723	0.46099195
27	0x3eab9de6	0.33518904
28	0x3e0193a8	0.12653983
29	0x3f2cdc91	0.6752406
30	0x3f0d84a9	0.5528055
31	0x3ecd1972	0.40058476
32	0x3eadc259	0.33937338
33	0x3f81783c	1.0114818
34	0x3f7b5a2d	0.9818447
35	0x3efb4464	0.49075615
36	0x3ec10ebf	0.37706563
37	0x3f271027	0.6525902
38	0x3f193632	0.5984832
39	0x3eeaf4ee	0.45889992
40	0x3f0dd0ea	0.553969
41	0x3f24517b	0.6418683
42	0x3e7d6838	0.24746788
43	0x3f2d06d5	0.6758855
44	0x3ebbc38d	0.3667263
45	0x3e290e2b	0.16509311
46	0x3f25520a	0.64578307
47	0x3f6bcf61	0.9211331
48	0x3f72617e	0.9468001
49	0x3ea9eb73	0.33187446
50	0x3ed4a5e7	0.41532823
51	0x3eacc658	0.33745074
52	0x3eed53e1	0.46353057
53	0x3eda9b90	0.4269681
54	0x3e91c874	0.28473246
55	0x3ef29acd	0.4738373
56	0x3f296df8	0.66183424
57	0x3f7b0dc0	0.98067856
58	0x3ec1aae3	0.3782569
59	0x3f35d2f2	0.71025
60	0x3ed8c0b9	0.42334536
61	0x3e793cfa	0.24339667
62	0x3f2d52e2	0.67704594
63	0x3f17a1af	0.59231085
64	0x3e9481b6	0.29005212
65	0x3ebe8a6f	0.3721499
66	0x3ed34cd2	0.41269547
67	0x3e773d27	0.24144422
68	0x3f33ff03	0.7031099
69	0x3ec0f47e	0.37686533
70	0x3e89cbaa	0.26913196
71	0x3ef32c98	0.4749496
72	0x3ee3e9ad	0.44514218
73	0x3f1d2057	0.6137747
74	0x3ef5f67b	0.48039612
75	0x3f0bc9ae	0.54604614
76	0x3f03a112	0.5141765
77	0x3f072906	0.5279697
78	0x3e66b088	0.22528279
79	0x3f38e52f	0.72224706
80	0x3ee95833	0.45575103
81	0x3f16bc1d	0.5888079
82	0x3eb3a2ae	0.35085052
83	0x3f4a92b0	0.7913008
84	0x3f4d8886	0.80286443
85	0x3f165592	0.5872432
86	0x3ec48819	0.38385084
87	0x3eb4416e	0.3520617
88	0x3f1ad351	0.60478693
89	0x3f2a366a	0.6648928
90	0x3e8ab531	0.27091363
91	0x3e8b6bc0	0.27230644
92	0x3f20fa1e	0.6288165
93	0x3f205b4e	0.6263932
94	0xbe3f8e71	-0.18706681
95	0x3f81c8f1	1.0139447
96	0x3ebe25a9	0.37138107
97	0x3f0068ea	0.50160086
98	0x3eaf1524	0.34195817
99	0x3f3b956d	0.7327488
100	0x3eda69ea	0.4265893
101	0x3ebefc4d	0.37301865
102	0x3dfc2fdb	0.12313815
103	0x3ed31aa1	0.41231254
104	0x3f087c64	0.53314805
105	0x3f458310	0.7715311
106	0x3ebce807	0.36895773
107	0x3e228a28	0.15873015
108	0x3f3212d2	0.6955997
109	0x3e8ac704	0.27104962
110	0x3e7c1207	0.24616252
111	0x3edc87f0	0.43072462
112	0x3f2bebdb	0.6715676
113	0x3f1268f5	0.571914
114	0x3f44941f	0.76788515
115	0x3f0a008c	0.53907084
116	0x3e880f34	0.265741
117	0x3f3f2be8	0.7467637
118	0x3f3cd050	0.7375536
119	0x3eafd524	0.343423
120	0x3f02809a	0.5097748
121	0x3f0538b4	0.5203965
122	0x3e9b8530	0.30375051
123	0x3e915957	0.28388473
124	0x3f35d26f	0.7102422
125	0x3ea743a5	0.32668796
126	0x3f4197d8	0.7562232
127	0x3f2cf747	0.67564815

bn1.bias f4 [128]
0	0x3d65b047	0.056076314
1	0x3df81def	0.121150844
2	0x3cf5807d	0.029968495
3	0x3e099d1b	0.13438837
4	0x3e0d99f3	0.13828258
5	0x3e4ae7ff	0.19815062
6	0x3e05a723	0.13052039
7	0x3d785cb7	0.060635295
8	0xbc6f3efe	-0.014602421
9	0xbe5aa4de	-0.21351954
10	0x3e73a881	0.23794748
11	0x3d62da27	0.055383828
12	0x3d89ef7b	0.067351304
13	0x3e4438ec	0.19162339
14	0xbe3c996c	-0.18417901
15	0x3e080ed3	0.13286905
16	0x3e0949d3	0.13407068
17	0x3a6ba036	0.0008988412
18	0x3deb7b1d	0.11498091
19	0x3d9d7725	0.07688741
20	0x3d3ef9a9	0.046624813
21	0x3e2215bd	0.15828605
22	0x3e277fd3	0.16357355
23	0x3df002a9	0.117192574
24	0xbd695bc7	-0.05697229
25	0xbd937125	-0.07199315
26	0x3e075e90	0.13219666
27	0x3dce604a	0.100769594
28	0xbe827cd1	-0.25485852
29	0x3d1d368a	0.03838209
30	0xbd9ad6db	-0.07560512
31	0x3e53701b	0.20648234
32	0x3ddf0ec8	0.10891491
33	0x3e392dd2	0.18083885
34	0x3c8d00d1	0.017212303
35	0x3dc2a12a	0.09503396
36	0x3e1f6018	0.15564
37	0x3d7147a3	0.05890621
38	0x3c39b354	0.011334259
39	0x3e593255	0.21210606
40	0x3e267ff7	0.16259752
41	0xbd41b65d	-0.047293056
42	0x3e6fc807	0.23416148
43	0xbd2f1414	-0.042743757
44	0x3e050bf8	0.12992847
45	0xbdf76f29	-0.12081749
46	0xbd681659	-0.056661937
47	0x3db11243	0.08646061
48	0x3e4a55af	0.19759248
49	0xbd4ca127	-0.049958374
50	0x3df28069	0.118408985
51	0x3d9e6c2c	0.07735476
52	0x3dfd1164	0.123568326
53	0x3e0b2242	0.13587287
54	0x3dc7d8aa	0.09758122
55	0x3d9e6a53	0.077351235
56	0x3dfb322b	0.12265428
57	0x3d9488e3	0.072526716
58	0x3d399261	0.045305613
59	0xbdcb956b	-0.099406086
60	0x3df57bd6	0.119865105
61	0x3e2c246e	0.16810772
62	0x3e37ad64	0.17937237
63	0x3e2233f2	0.15840128
64	0x3d9d4578	0.07679266
65	0x3e59f7d7	0.2128595
66	0x3cbd4090	0.023102075
67	0xbdcfe90b	-0.10151871
68	0x3e22eeb9	0.15911378
69	0xbdc6a2d5	-0.096990265
70	0x3e348801	0.17630006
71	0x3c6fffa9	0.0146483565
72	0x3ce0cf4a	0.027442593
73	0x3d79b387	0.060962226
74	0x3b92e2dd	0.0044826106
75	0x3e23481c	0.15945476
76	0x3d858379	0.06519217
77	0x3e13d815	0.14437898
78	0xbe0d5c62	-0.13804772
79	0x3e4015a1	0.18758251
80	0x3dda9e68	0.10674745
81	0x3cbf30da	0.023338724
82	0x3d064bda	0.03278718
83	0x3d91db66	0.07121925
84	0x3c661d3e	0.014045058
85	0xbcc1f539	-0.023676502
86	0xbb96fc6f	-0.004607729
87	0x3e122ad5	0.14274152
88	0x3cdb36e1	0.026759567
89	0xbd027969	-0.031854067
90	0x3d1bbc3c	0.03802131
91	0x3e27dc19	0.16392554
92	0x3c219a90	0.009863511
93	0x3cbfca2a	0.023411829
94	0xbea9ec64	-0.33188164
95	0x3e068315	0.13135941
96	0x3ddadfc9	0.10687215
97	0x3d1dc6c3	0.038519632
98	0x3e06f551	0.13179518
99	0x3dbc175d	0.09184144
100	0x3c5ceff1	0.013484941
101	0x3de9b3aa	0.11411221
102	0xbe5c44de	-0.21510646
103	0xbdfd0a8d	-0.12355528
104	0xbd167306	-0.03673079
105	0xbcb428d4	-0.021992125
106	0x3dcdd086	0.10049538
107	0x3e5d2890	0.21597505
108	0x3defe37c	0.11713311
109	0xbd883acb	-0.06651839
110	0xbd6d570a	-0.057944335
111	0x3df582b6	0.11987822
112	0x3b144375	0.0022623215
113	0x3c48d8c8	0.012258716
114	0x3d328dbb	0.043592196
115	0x3de070b8	0.109589994
116	0x3d9e5165	0.077303685
117	0x3da36d75	0.07979862
118	0xbd9e7b34	-0.07738343
119	0x3d717416	0.0589486
120	0x3dd0f539	0.102030225
121	0x3e1a510a	0.15069976
122	0x3cb0ae0b	0.021567365
123	0x3e1cd5a4	0.15315872
124	0x3e3351c2	0.17511657
125	0x3e1f9b4d	0.15586586
126	0xbb8f1657	-0.004366677
127	0x3dd6d860	0.10490489

bn1.running_mean f4 [128]
0	0x3f4cc09f	0.79981416
1	0x3e387e4a	0.18016925
2	0x3fb814d0	1.4381351
3	0x3e4e39bc	0.20139211
4	0x3ef20cb8	0.4727533
5	0x3f084754	0.5323384
6	0x3f191c45	0.5980876
7	0x406c6334	3.6935549
8	0x3f519f2b	0.81883496
9	0x3f88e871	1.0695935
10	0x3eff0a49	0.49812534
11	0x3ef6656a	0.48124248
12	0x3e197f80	0.14990044
13	0x3eea200a	0.4572757
14	0x401ed520	2.481758
15	0x3e7d212f	0.2471969
16	0x3dbf6b94	0.09346691
17	0x00000004	6e-45
18	0x3f1ff068	0.62476206
19	0x3fa715ff	1.3053588
20	0x3fe94d1e	1.8226659
21	0x3f1ea10b	0.6196448
22	0x3f1c61a6	0.610865
23	0x3f5c4ded	0.86056405
24	0x3efd306f	0.49451014
25	0x3f5bf615	0.85922366
26	0x3e86c2d0	0.26320505
27	0x3f5a5f88	0.8530202
28	0x403c0a62	2.9381337
29	0x3ebd4dfe	0.36973566
30	0x3fe51c40	1.7899246
31	0x3ee94e21	0.4556742
32	0x3ea06d95	0.31333604
33	0x3f198f83	0.59984607
34	0x3fc85efb	1.5653986
35	0x3efd7c90	0.49509096
36	0x3f1c48d6	0.6104864
37	0x3e7dd432	0.24787977
38	0x3f4c3711	0.79771525
39	0x3f397dcb	0.7245757
40	0x40cd6621	6.418717
41	0x3f92bddb	1.1464189
42	0x3f495475	0.78644496
43	0x3fb7db54	1.4363809
44	0x3efc1af3	0.4923931
45	0x400235ce	2.034534
46	0x402205a5	2.5315945
47	0x40b38618	5.610119
48	0x3f563018	0.83667135
49	0x3ea19fe6	0.31567305
50	0x3f07000b	0.5273444
51	0x3f25323f	0.64529794
52	0x3ebb9c4b	0.3664268
53	0x3f1624b2	0.5864974
54	0x3f76254f	0.9615068
55	0x3fd9b371	1.7007886
56	0x3f9e1c4a	1.2352383
57	0x3eb2d9e8	0.34931874
58	0x3f100f9a	0.56273806
59	0x3f0b723e	0.54471195
60	0x3f17d33d	0.593067
61	0x3feb0ec5	1.8363882
62	0x3fbcb78b	1.4743513
63	0x406e2aa2	3.721352
64	0x3fd428cc	1.657495
65	0x3f22152d	0.6331356
66	0x3f00db39	0.5033451
67	0x3f8f37ec	1.1188941
68	0x3f8b1604	1.0866094
69	0x3f106cc3	0.5641596
70	0x3db56473	0.0885705
71	0x3eb812e7	0.3595192
72	0x3efe3288	0.49647927
73	0x3f183384	0.59453607
74	0x3ee239d1	0.44184735
75	0x3f27c695	0.6553739
76	0x3ff5bdd7	1.919856
77	0x3ecb663b	0.39726433
78	0x40a9821f	5.297134
79	0x3f876441	1.057747
80	0x3fd84558	1.6896162
81	0x3fb83b9e	1.4393194
82	0x3e4fbc73	0.20286731
83	0x40872979	4.2238126
84	0x40210906	2.5161757
85	0x40278ca1	2.6179583
86	0x4000b92b	2.0113018
87	0x3dcdbb8f	0.100455396
88	0x3f2eaa75	0.68228847
89	0x3ff9f1f2	1.9526961
90	0x3f516e7e	0.8180922
91	0x3f63ab5b	0.8893334
92	0x40fc97e3	7.893541
93	0x40c4b019	6.1464963
94	0x3f187765	0.5955718
95	0x3edad3cc	0.42739713
96	0x3e0967c2	0.13418487
97	0x3f39af85	0.72533447
98	0x3ec9259a	0.392865
99	0x3e953a33	0.29145965
100	0x3efdb744	0.49553883
101	0x3f3bde9b	0.73386544
102	0x3f654156	0.8955282
103	0x3f5d7018	0.86499166
104	0x402138fb	2.5191028
105	0x3fdceab6	1.7259128
106	0x3f20ba0f	0.627839
107	0x3dbe18ec	0.09282097
108	0x3fe95717	1.8229703
109	0x3faddf41	1.3583757
110	0x3e962507	0.29325125
111	0x3db70c22	0.08937861
112	0x3fd55781	1.6667329
113	0x3f3dfb79	0.7421184
114	0x3ece8913	0.40338954
115	0x3fa17cf3	1.2616256
116	0x3dac6eb6	0.08419554
117	0x3ea30689	0.31840923
118	0x401611ae	2.344829
119	0x3fafbe89	1.3730022
120	0x3fa03e97	1.2519101
121	0x3e9d4859	0.3071926
122	0x3eb913e6	0.36147994
123	0x3f1459d6	0.5794958
124	0x3f2a2644	0.6646464
125	0x3dd87e8e	0.105710134
126	0x3f073ddf	0.5282878
127	0x40bbcb4b	5.868566

bn1.running_var f4 [128]
0	0x40364042	2.847672
1	0x3ee9f25c	0.45692718
2	0x4022ea16	2.5455375
3	0x3ea39f0b	0.31957278
4	0x3f91a45b	1.1378282
5	0x3f8ac310	1.0840778
6	0x3fbeb2b3	1.4898285
7	0x41613aa4	14.076817
8	0x401d200a	2.4550805
9	0x40ac84b3	5.3911986
10	0x3f95899c	1.168262
11	0x3f95bc97	1.1698178
12	0x3f1486fc	0.5801847
13	0x3f88910d	1.0669266
14	0x40c218c8	6.065525
15	0x3f473d9f	0.778284
16	0x3e42980c	0.19003314
17	0x00000004	6e-45
18	0x3fd5f7f7	1.6716298
19	0x40816afd	4.04431
20	0x4075ca4f	3.840473
21	0x3feb2d78	1.8373251
22	0x3f867f0d	1.0507523
23	0x3fde173f	1.7350844
24	0x3f950241	1.1641313
25	0x400b0b01	2.1725466
26	0x3faf4929	1.3694202
27	0x3fa7d5bd	1.3112103
28	0x41117dd5	9.093221
29	0x3f3e8c60	0.74432945
30	0x4096a440	4.70755
31	0x3f9a78ad	1.2068077
32	0x3ee7d73e	0.45281404
33	0x3f831329	1.0240222
34	0x408dc30f	4.430061
35	0x3f93eb5e	1.1556203
36	0x3fe6ae99	1.8022033
37	0x3f02eec7	0.51145595
38	0x40080cc3	2.125779
39	0x402bf8ee	2.6870685
40	0x40be6bf2	5.950677
41	0x40187596	2.3821769
42	0x401966a2	2.3968892
43	0x400343f9	2.0510237
44	0x3fe989d4	1.8245187
45	0x40ad0e57	5.4080005
46	0x40b19896	5.549876
47	0x424298c0	48.64917
48	0x400b7584	2.1790476
49	0x3f275c9b	0.6537568
50	0x3f983a44	1.1892781
51	0x400523e0	2.0803146
52	0x3f7bee06	0.9841007
53	0x3f806c54	1.0033059
54	0x40030abf	2.047531
55	0x40568eaf	3.3524587
56	0x406bc88f	3.6841161
57	0x3f274aaf	0.65348333
58	0x3f684431	0.9072905
59	0x3f015f26	0.5053581
60	0x3f99028a	1.19539
61	0x40ed8347	7.422275
62	0x3fec1f01	1.8446962
63	0x40fc6521	7.887345
64	0x405afc31	3.4216425
65	0x4021dbd3	2.529042
66	0x3ff09c30	1.8797665
67	0x403115dd	2.7669594
68	0x408e6d60	4.4508514
69	0x3f68c81a	0.9093033
70	0x3e3e6244	0.18592173
71	0x3f903ffd	1.1269528
72	0x3f76058a	0.961022
73	0x3fddec32	1.7337706
74	0x3f7fcacb	0.9991881
75	0x3ff2fade	1.8982809
76	0x40181d08	2.376772
77	0x3f70064a	0.93759596
78	0x419d50a7	19.664381
79	0x408242c2	4.070649
80	0x406a7112	3.6631513
81	0x4068eae2	3.639336
82	0x3f5d0fc8	0.86352205
83	0x41e0ed0e	28.11575
84	0x40671d2e	3.611156
85	0x40bff005	5.9980493
86	0x409954ba	4.7915926
87	0x3dedce28	0.11611587
88	0x400b1c16	2.1735892
89	0x4043f448	3.0617847
90	0x3f8b1456	1.0865581
91	0x4029e6db	2.6547153
92	0x41ab9275	21.446512
93	0x41c32502	24.39307
94	0x3fa95e3a	1.3231881
95	0x3ed43163	0.4144393
96	0x3e87dba8	0.26534772
97	0x401a3d2c	2.4099836
98	0x3f8bc397	1.0919064
99	0x3f24f596	0.64437234
100	0x3f7fb331	0.998828
101	0x3fcff3d2	1.6246283
102	0x3fedac85	1.8568274
103	0x402bb241	2.6827548
104	0x409d63d0	4.918434
105	0x40c91bae	6.284629
106	0x40172b3e	2.3620143
107	0x3df63e5e	0.12023614
108	0x41314cae	11.081221
109	0x406804b2	3.6252866
110	0x3f1665f9	0.5874935
111	0x3dbff781	0.093733795
112	0x40af6903	5.481569
113	0x3f9ef7bb	1.2419351
114	0x3faad0f6	1.334502
115	0x400185dc	2.0237951
116	0x3e5186d7	0.20461594
117	0x3eda27e9	0.42608574
118	0x40d91212	6.783456
119	0x40349d28	2.822092
120	0x3f4f0dfc	0.80880713
121	0x3f912308	1.1338816
122	0x3f356955	0.7086385
123	0x3fd3dd64	1.6551938
124	0x3f63f9c9	0.89053017
125	0x3e5a682f	0.21328805
126	0x3e9ccf0c	0.30626714
127	0x40fd3166	7.91228
